savefile/mnist/test/checkpoint/ckpt_final.pth (torch_old, 64375 bytes, 8 tensors)

conv1.weight f4 [6, 1, 5, 5]
00000000: c6ae 273d e2c7 c5bd 80d6 e6bd 5aa8 08bf
00000010: 19e1 bb3e 0f6d d8be 386b e1be e8fc 72be
00000020: 7e83 5ebe de9d 173f 4b90 2dbe b56e 06bf
00000030: e81d 11bf df7c cfbe a86b 4a3e 5d6c 0a3f
00000040: f48a 01bf 16cf 1abf dfcb 06bf a449 3f3e
00000050: 6c5f 453f 5731 8c3d 149f 5fbe 7568 13bf
00000060: 0433 d2bd c07c 24bf a45a 2c3f 734e 193d
00000070: 2dbf b63e e895 fdbe f141 aa3e 2ec0 b13e
00000080: dd64 c73c df5d 4fbf 71bf 00bf 040f c03e
00000090: cc61 08be 718b 4ebf 88a8 16bf bf9f 9e3e
000000a0: e4c4 ebbe 703b 7dbf f902 c4be cdfc 903e
000000b0: ed16 a73e 5c96 54bf ab5c 343e 2125 5f3e
000000c0: cad7 233e c11d 95be 1b92 573e bdfd f13e
000000d0: 28a6 be3e 552e ae3d 2037 dc3e de7a a4be
000000e0: 13b3 51be e224 2e3e b7f4 7d3e 43dd 88be
000000f0: 4837 6dbf 1005 40bf 431a 28bf 2fcc 27bf
00000100: 0e3c 39bf ed26 4a3e ce9f 2bbd 80c5 bebe
00000110: 6a72 75be 775a 053d 9154 a63d 1e75 2c3e
00000120: 0254 8a3e 1ad9 d13e 90ed f73d e318 cabe
00000130: c38f c7bc ad5b 0f3e f4c9 ff3e 6a1e 893e
00000140: ffe6 1bbf df2a acbe 5f38 61be 70e0 30be
00000150: 52b2 3d3f 3d3b 1ebe 60cd 53be 3e2c 42bf
00000160: a5f3 33bf 3162 f03d 0db7 bfbc 1361 153e
00000170: b47e b43c 888b 00bf b77a 4cbf eb90 353d
00000180: e4eb 03bd a14a 253e 7f33 193e 98cf 86bd
00000190: adcb fc3e 8420 adbe 38d5 d4be c130 25be
000001a0: 26c3 a8be 30be 9b3e f31a c4bc f126 4abf
000001b0: 6372 ebbe 5736 c23e 91ab d43e 3639 efbe
000001c0: 866c 1cbf fb4e 8c3c 779f 973e 4997 623e
000001d0: c796 3ebf 7319 5abe c9cb 9cbd 0071 993e
000001e0: ad91 7fbe cbb7 2bbe ba72 11bf d4ef acbc
000001f0: ca1a cb3e ffd7 95be af6c 1cbd 31e6 113c
00000200: 86ae 76be 0c3c d2be efa1 a7be 7d22 33bd
00000210: 8521 a7bd 8e2d 98be 76d2 22be 387d acbe
00000220: 7ff8 78be 8229 b5be a85a 91be 87df 88be
00000230: 9a47 61be ca82 8cbe 84b5 77be c991 06be
00000240: cf9b f1be 9c6e 14be 182e 6cbe 8a5f 5bbe
00000250: 1d03 38be fd46 2ebe
0.04093816 -0.09657265 -0.112713814 -0.53381884 0.36695173 -0.42270705 -0.44027114 -0.23729289
-0.21729848 0.5922526 -0.16949575 -0.52512676 -0.5668626 -0.40524957 0.1976763 0.540716
-0.5060265 -0.6047224 -0.5265483 0.18680435 0.7709873 0.06845348 -0.21838027 -0.57581264
-0.10263637 -0.64252853 0.67325807 0.03742833 0.3569273 -0.49528432 0.33253434 0.34716934
0.024340088 -0.8100261 -0.50292116 0.37511456 -0.13318557 -0.8068152 -0.5885091 0.30981252
-0.46048653 -0.9891882 -0.38283518 0.28317872 0.32634678 -0.8304193 0.17613475 0.21791507
0.16000286 -0.29124263 0.21051829 0.472639 0.37236142 0.08504931 0.43010807 -0.3212499
-0.20478468 0.17006257 0.24800383 -0.2673131 -0.9266248 -0.75007725 -0.6566507 -0.65545934
-0.7235726 0.19741412 -0.04190045 -0.37260056 -0.23969427 0.032556977 0.081215985 0.16841552
0.27017218 0.40985948 0.12105858 -0.39472112 -0.024360543 0.13999815 0.49958766 0.26781017
-0.6089935 -0.33626458 -0.2199416 -0.17273116 0.7410022 -0.15452285 -0.20683813 -0.7584876
-0.7029365 0.117374785 -0.023402715 0.14587812 0.022033073 -0.5021291 -0.7987475 0.044327658
-0.032207385 0.1614175 0.1496105 -0.06582564 0.49374142 -0.3381387 -0.41568923 -0.1613188
-0.32961386 0.3041854 -0.023938632 -0.7896567 -0.45985708 0.37932083 0.41537145 -0.46723336
-0.61103094 0.017127505 0.2961385 0.22128023 -0.7444882 -0.2129877 -0.076560564 0.29969025
-0.24957915 -0.1676933 -0.56815684 -0.021110453 0.39668876 -0.29266354 -0.038189586 0.00890498
-0.24090013 -0.41061437 -0.32740733 -0.043734062 -0.0816069 -0.29722255 -0.15900597 -0.33689284
-0.24313544 -0.3538323 -0.28389478 -0.26733038 -0.2199997 -0.27443534 -0.24190336 -0.1314155
-0.47189185 -0.14495319 -0.23064458 -0.21423164 -0.17969938 -0.17019267

conv1.bias f4 [6]
00000000: 7378 d7bf 1db3 b3bf d694 afbf a653 c5bf
00000010: 8154 bebf 047f d3be
-1.6833633 -1.4039036 -1.3717296 -1.5416152 -1.4869539 -0.41307843

conv2.weight f4 [16, 6, 5, 5]
00000000: 0f99 bebd 7671 a53e 8ef0 b33e a121 803d
00000010: 1344 2c3e 2caf 4abe df49 be3d a186 85bc
00000020: 1212 0a3f d9b0 95bd b1c9 fa3d 70db 403e
00000030: ea36 5c3e f01e 233e 18f8 34be 9f4b 683e
00000040: d0a4 213e ce14 e43d c400 933c 537c 11be
00000050: 104c ca3e 9a13 b53e 75b5 09bd 624c 683c
00000060: 4289 0fbd 64f5 223c 2a87 39be 0c40 9ebe
00000070: a1fa 98be c5a0 0ebe a8aa 2abc 4385 6d3d
00000080: 41c0 f0bd 52d0 cdbe 9833 85be 48c6 5bbd
00000090: 9292 963d 07fd 78be 62e0 96be 953e 94be
000000a0: cc59 97be f6f0 35be c487 96be 54a4 8ebe
000000b0: 29aa a0be dba5 3fbe ec14 eabe 9140 17bf
000000c0: e542 a5be 8e3a c63d 73b2 debe 277c 90be
000000d0: e9e7 90be 128f 60be b7eb 59bd 77f9 f1be
000000e0: be22 4ebe ba08 2fbe 5580 b8bc 957e 3dbe
000000f0: 0b8d f6be 673b 9bbe 5448 66be 1291 f8bc
00000100: 3b10 823c dc33 bdbe 5592 0cbf 9848 4fbe
00000110: fba3 7fbe 7cba 81be 1a2e 9abe b8dd dbbe
00000120: 41bd b0be a2a4 06be 7040 aabc 6f1c 893e
00000130: 2be1 05be 8b77 23be 935c b7be 8a00 18be
00000140: 1689 75bd 50dd 51be 5495 cabd c07a d9be
00000150: 9997 8e3c 2d5a cc3d e536 06be 9f12 ecbd
00000160: e87d 34be 9e5c 13be e93e 0ebd f8dd 6d3d
00000170: 7228 c33d 647a a33d 3beb b23d 007d 643d
00000180: 537a 0a3e f71b ac3e c768 9b3e 8937 043e
00000190: ec91 f2bd c57d 3bbe 979a e8bd 65d7 06be
000001a0: 6f11 e83d ae3a 293b 6590 ad3d 0a8d 89be
000001b0: 292e cebd f5a5 d1bd fe78 103e 9e30 e33d
000001c0: c6c9 46be 5c28 9cbc b0fc 193e 93c9 d23e
000001d0: 5029 56bd 87c3 9e3b aee2 37be 3818 613e
000001e0: 9a06 593c 58a2 b0bd 007c cabe 4336 ddbd
000001f0: ac92 88ba da2a fd3d 1b07 30be cf2b bfbe
00000200: a372 ddbd 10f8 423c e351 083f c840 9dbd
00000210: bc80 f5b7 e9b9 b33e c33d cc3e 2076 7a3e
00000220: 7b45 6cbe 556a 5dbe f1fb 3a3e 330b a33d
00000230: b662 213e 054e a1be 3437 bdbe c305 55be
00000240: 94f9 d8be fed4 103e 7131 a7bd e0be 00bf
00000250: 9a60 c2be d8de e4bd ffb0 e33b b715 9bbc
00000260: d396 cbbb 1a52 26bc bd73 25bc 8945 33bc
00000270: b1e2 703c 4c1e 3e3b 6be3 4abc d0f7 6abc
00000280: ccf6 f23c 6b59 d3bc d341 8abb 7dbd 80bc
00000290: cf7d b03b a1a8 cabb d76c 163b 4506 11bb
000002a0: fc44 e2bb 2ab1 c6bc b7d9 33bc fcce 273c
000002b0: 6387 a43c f390 e7bb 191c a9bc f939 5fbd
000002c0: 5d6a b4bc b5f7 603b b2da f8bc d156 a8bb
000002d0: a185 6abd 2d74 12bd 2036 c6bc 8129 36bc
000002e0: 117a 65bc 4d6b a0bc 3f8d 3abc d816 e8bc
000002f0: e9fd b5bc 946c ec3b aeaf 24bd 7d8e 9dbc
00000300: ccf7 70bb 2e0d 333a 88e3 f7bc 9b32 c1bc
00000310: 7d3b b5bc 63e5 70bc b93c 63bc b731 a0bc
00000320: 1176 3d3c 1eaa 983b e85d d9bb 3c8d c1bc
00000330: 4cb2 f8bc 80f5 153d 5ceb b3bc 6469 2cbc
00000340: b225 9ebb 24e5 03bc 619f 8c3b 95a4 a73c
00000350: 898a 043b 2687 dbbc 5224 87bb 2f52 d73a
00000360: a377 df3c 18c9 413d 59ce 26bc d07b eeba
00000370: d41d 9cbc 062a f5bc 5886 19bc 2f5f 6f3b
00000380: b338 90bb 70bd cdbc 7e9a e8bb dc79 8b3b
00000390: aacc 47bd 8a86 0cbc 55df cebb 10c1 3abc
000003a0: 93a9 7bbc dcb5 b5bc 5072 a0bb 4d9d d4bc
000003b0: 3bba edbb b02f 06bd 3b55 e8bc 6940 12bd
000003c0: 9dc0 673b 7126 e0bc 7202 6abc 6e27 b6bc
000003d0: fbfb e63b f041 303c 75da 76bc 5dc5 75bc
000003e0: 8c81 eebc 0954 04bd 3ba0 4abc 1d51 8cbc
000003f0: 3f4b 633c 161e 0abd 2ff0 393a 0763 97bb
-0.09306537 0.32313126 0.35144466 0.06256414 0.16822843 -0.19793385 0.092914335 -0.016299548
0.53933823 -0.07309122 0.12245501 0.18833709 0.21505323 0.1592977 -0.17672765 0.22685097
0.15785527 0.11136781 0.017944701 -0.14207582 0.39511156 0.35366517 -0.033620317 0.014178367
-0.03504301 0.009946201 -0.18117967 -0.3090824 -0.29878715 -0.13928516 -0.010416664 0.057988416
-0.117554195 -0.40197998 -0.26015925 -0.053655893 0.07352175 -0.24315272 -0.29468066 -0.28953996
-0.29560697 -0.177677 -0.29400456 -0.27859747 -0.31379822 -0.18715613 -0.45719087 -0.59082896
-0.322776 0.09679137 -0.4349552 -0.2821972 -0.28301933 -0.21929577 -0.05320331 -0.4726064
-0.2013044 -0.17093173 -0.022522131 -0.18505318 -0.48154482 -0.30318758 -0.22488528 -0.030342612
0.01587688 -0.36953628 -0.54910785 -0.20242536 -0.24964897 -0.2533759 -0.30113298 -0.42942595
-0.3451939 -0.1314874 -0.02078268 0.26779506 -0.13074176 -0.15963571 -0.35812816 -0.14843956
-0.05994519 -0.2049458 -0.09891763 -0.42476463 0.017406272 0.09978137 -0.13106878 -0.11526989
-0.17626154 -0.143908 -0.034727965 0.058073014 0.09529199 0.079823285 0.08736273 0.05578327
0.13523225 0.33615085 0.30353376 0.1291181 -0.11844239 -0.18309696 -0.11357611 -0.13168104
0.1133145 0.002582233 0.08474807 -0.26865417 -0.10067398 -0.10236732 0.14108655 0.11093257
-0.19412908 -0.019062214 0.15037799 0.41169414 -0.052285492 0.004845086 -0.17957565 0.21981895
0.013246203 -0.086247146 -0.3954773 -0.10801365 -0.0010419688 0.12361689 -0.1719021 -0.3733811
-0.10812881 0.011899963 0.5324995 -0.07678372 -2.9266223e-05 0.35102776 0.3989087 0.24459124
-0.2307338 -0.21622594 0.1826017 0.079611205 0.15760311 -0.31504837 -0.3695618 -0.20802979
-0.42377913 0.1414375 -0.08163727 -0.5029125 -0.37964326 -0.111753166 0.00694859 -0.018931253
-0.006213048 -0.0101514105 -0.010098395 -0.010941871 0.014702485 0.0029009758 -0.012383322 -0.01434131
0.029658698 -0.025799474 -0.0042192726 -0.015715355 0.0053860913 -0.006184653 0.0022953057 -0.002212898
-0.0069051962 -0.0242544 -0.0109772 0.01024222 0.020084089 -0.00706684 -0.02064328 -0.054498646
-0.022023374 0.0034327332 -0.03037772 -0.0051373024 -0.057256345 -0.035755325 -0.02419573 -0.011118294
-0.014006154 -0.019582415 -0.011386215 -0.028331205 -0.0222158 0.007215092 -0.040206604 -0.019232983
-0.0036768792 0.0006830272 -0.030259863 -0.0235837 -0.022123093 -0.014703128 -0.013869458 -0.019554956
0.011563794 0.0046589514 -0.006633509 -0.023626916 -0.030358456 0.03661108 -0.021962814 -0.010523174
-0.004826271 -0.008050237 0.0042914604 0.020464221 0.0020224175 -0.026797842 -0.0041242028 0.0016427691
0.027278727 0.04731092 -0.010181033 -0.0018194858 -0.019057192 -0.029927265 -0.009370409 0.003652524
-0.0044012903 -0.025114745 -0.007098495 0.00425647 -0.048779167 -0.0085769985 -0.0063132443 -0.011398569
-0.015360254 -0.022181444 -0.0048964396 -0.025953913 -0.0072548664 -0.032760322 -0.028360954 -0.035705958
0.003536261 -0.02736208 -0.01428281 -0.022235598 0.0070490814 0.010757908 -0.015066733 -0.015000668
-0.029114507 -0.032306705 -0.0123673035 -0.017128522 0.013872921 -0.0337201 0.000709298 -0.0046199593

conv2.bias f4 [16]
00000000: 4f55 293f b7e0 1abc d4b1 cd3e 48d7 103f
00000010: 3733 863f a86e 663f 0357 a43e a67e 893f
00000020: 7880 90bd 364c 963c 41a8 06bd b3b8 c23b
00000030: 6f9f 6fbd 18cd 2a3f 3fd1 33bd ddaa 12bd
0.66145796 -0.00945299 0.40174735 0.56578493 1.048438 0.900126 0.32097635 1.0741775
-0.070557535 0.018346887 -0.032875303 0.005942428 -0.058501657 0.667192 -0.043900725 -0.03580748

conv3.weight f4 [32, 16, 5, 5]
00000000: 8617 03bd d4ac 5bbe 2eba 80bd b226 b6bd
00000010: ee6b ac3c 24c6 73bd 801f b5be 0682 b4bb
00000020: 2172 253c 63d3 263d 0103 163e 1f38 dabd
00000030: f25b ecbd 0468 7dbd cc13 2dbe 4a69 8e3e
00000040: 992a 8dbd 2545 8abd 3598 9c3d 3b52 dfbd
00000050: 17cf 8c3e 24d2 ce3c bcf2 70bd 9b40 58be
00000060: 05e8 abbd 8af8 ee3b 4057 933c 489e a53c
00000070: 7b0d a73c 405c 023d 823a e73b 6c45 133c
00000080: 95be f93c 0764 c03c ce51 aa3c 6ae1 c23c
00000090: bd84 a63c bcc2 723c 3994 f33b 2c32 d13c
000000a0: 1e02 a23c d237 9d3b e98b c73c ab7b 593c
000000b0: caaf d93b ec23 fabb 86cc 7abc ce06 f5bb
000000c0: 2bdc 9f3c 9938 dfb8 88e7 ecbd c542 b0be
000000d0: 9ffa cbbe deca 17be e3cb ee3d 1291 97bc
000000e0: 6e98 513d d978 c03d dab2 debd 1b78 913a
000000f0: c4d3 adbe 291a efbb 8021 e1bd 0001 23be
00000100: 8c6b 7bbe 6dd9 d1be 1616 92be 203e f83c
00000110: 1550 373d 3ab3 1b3d f462 35be af17 35bb
00000120: df5d 1f3e 4e05 50be cfa4 4e3e cd49 14be
00000130: 857d 88be 7a51 78be a744 bbbe 5c84 86bd
00000140: 7e36 a3bd 32af de3d 9bec 8b3e d273 db3c
00000150: b9ef d2bc 7ec0 db3d 9e49 e53d 9fe4 16be
00000160: 0fa6 85be daf3 ddbd b1f7 393c d685 cbbb
00000170: 500e 3ebe 9610 1cbe a02d 993c 1b09 123e
00000180: 56d6 8cbc afd2 1d3d 9eeb 123d 28bd 38bd
00000190: 3005 a0be 0d33 373e 7655 de3e 55a3 623e
000001a0: 1696 3fbe 1e26 59be 57d6 9dbd d21d 6b3d
000001b0: 4dca 4b3d 6d74 593c 13df 51be 0cb8 49be
000001c0: 9c1b 85be c32f e53e d45b 213d d489 2c3e
000001d0: 3c22 23be cb59 3abe 3a22 d8b8 baa7 203c
000001e0: 232e 973d ae04 11be cfa9 733d fb21 b23d
000001f0: 7a17 d4bd 8d6f fbbd 6ee2 4abd b7a6 2e3e
00000200: a9d5 0f3d 3621 dcbd 6276 1dbe 70cc 2ebc
00000210: fc7b 083e f748 383d 7357 3abe 0dc3 8abe
00000220: b2d3 8bbe ce0c c03b a319 1cbe aebf 60be
00000230: 3b20 8cbe d5e6 86be 16c7 ddbe 31a3 90be
00000240: 5d48 6ebd be1e 853b fbbd 8e3e 2748 14bd
00000250: bd2f a23c 140e eabd 72be 6138 70d7 d83c
00000260: 0d35 1d3e 8ae5 493e 68ad bd3b b68d 24be
00000270: 1f64 47bd 8d48 16bd dd57 443d 16b2 8dbd
00000280: 49be 44be c3cd 2b3e 987e 293e ab17 ef3c
00000290: 07ba bf3d 441b 74be 29f8 cfbd 6876 c93d
000002a0: 4f25 193e e3ff 2f3e 66dc 5ebc aa3f 8cbe
000002b0: 44d2 4fbe 8a56 bebd 72bd 1ebe 3f6b 1c3d
000002c0: 37d2 a5be b6d0 55be 2360 91be bc60 b4be
000002d0: b611 4abe 56aa 06bf 179b 5fbe 4d7d 8a3e
000002e0: a177 7c3e aa8b ccbe d05b 4dbe 5d42 05bc
000002f0: 7ecd ad3e e6e8 9b3e 1e9d 17be ce03 2bbe
00000300: 3d70 6bbe 8504 a2be e847 c3bd 5a98 4f3e
00000310: c4ed 3b3d 628e 1dbe fa87 a4bd 9c41 4cbd
00000320: d70f 53bc 458d 973b 820b 0d3d 9f1a 2e3d
00000330: e399 01bc 5ce2 f43c cf6e 193c 4383 a53c
00000340: 6c05 b43c 21d2 b1bb dff1 4139 fd35 bd3b
00000350: 9eb0 ad3c fec8 af3b 852b 393c dcf3 793c
00000360: 6153 353c 61e8 fb3b d7b2 b5b9 4e61 97bc
00000370: 0773 f3bc 23dd 423c 12de 83bc 4629 193b
00000380: 2d54 5d3c ad4a 1bbe 5894 c83d 15e9 5c3e
00000390: 31f2 4fbd 22e8 b6bc 9488 51bd f93a d03d
000003a0: d0fe b53d d558 3cbe 171b fbbd e40a 81be
000003b0: 1245 1ebe a5c9 aebc 090e e3bd e4f4 29be
000003c0: 39c9 393d d048 813e 03c7 cabd 316c babe
000003d0: e8ef 15be 90d3 883e 15d1 883e 9de7 4e3d
000003e0: e5c2 4a3d f0a9 37bd c8a8 c9bc ac0b db3c
000003f0: 8fcc a53c d106 883b f30c b1ba 451a 523c
-0.032004856 -0.21452647 -0.06285511 -0.08894099 0.021047559 -0.059515134 -0.35375595 -0.005508664
0.010098011 0.040728938 0.14649583 -0.106552355 -0.11540975 -0.061866775 -0.16902083 0.27814704
-0.068928905 -0.067514695 0.07646219 -0.10904356 0.27501747 0.025246687 -0.05882524 -0.21118395
-0.083938636 0.0072928118 0.01798594 0.020217076 0.02039217 0.031826258 0.007056535 0.008988719
0.030486384 0.023485197 0.02079096 0.023789126 0.020326966 0.014816936 0.007433441 0.02553662
0.0197764 0.004797914 0.024358707 0.013274114 0.00664327 -0.0076336768 -0.015307551 -0.007477618
0.019514164 -0.00010644011 -0.115675986 -0.3442594 -0.39839646 -0.14823481 0.11659982 -0.018501792
0.05117076 0.0939805 -0.10873957 0.0011098416 -0.33950627 -0.0072968197 -0.10992718 -0.1591835
-0.24552745 -0.40986195 -0.28532475 0.030303061 0.044754107 0.03801272 -0.17713529 -0.0027632525
0.15563153 -0.20314524 0.20180057 -0.14481278 -0.26658264 -0.24249831 -0.36575815 -0.06568214
-0.07969378 0.108732596 0.27328953 0.026788626 -0.025749074 0.10730074 0.11195682 -0.1473565
-0.26103255 -0.108375266 0.011350558 -0.006211023 -0.18560147 -0.15240702 0.018698514 0.14261286
-0.017192047 0.038531 0.035869233 -0.04510227 -0.31253958 0.17890568 0.43424577 0.22132619
-0.18709597 -0.21205947 -0.07706898 0.057401486 0.049753476 0.013272387 -0.20495252 -0.19699115
-0.25997627 0.44763002 0.039394215 0.16849452 -0.15931028 -0.18198316 -0.00010306058 0.009805614
0.07381847 -0.14161941 0.059488114 0.086978875 -0.1035604 -0.12277136 -0.049532346 0.17055784
0.03511587 -0.10748522 -0.1537719 -0.010668859 0.13328546 0.04499146 -0.18197422 -0.27101937
-0.27309948 0.0058609014 -0.15244155 -0.2194812 -0.2736834 -0.26347986 -0.43315953 -0.28249505
-0.05817448 0.0040625026 0.2787932 -0.036201622 0.019798154 -0.114284664 5.3821546e-05 0.026469916
0.15352269 0.19716468 0.005788494 -0.16069683 -0.048679467 -0.036690284 0.047935355 -0.06918733
-0.19213213 0.1677771 0.16552198 0.02918609 0.09361654 -0.23838526 -0.10154755 0.09837037
0.14955638 0.17187457 -0.013602352 -0.27392322 -0.20295054 -0.0929385 -0.15501955 0.038188215
-0.32386944 -0.20880398 -0.2839366 -0.35230052 -0.19733319 -0.5260366 -0.21836506 0.27048722
0.2465501 -0.39950305 -0.20054555 -0.008133498 0.3394584 0.30451125 -0.14806029 -0.1670067
-0.22992034 -0.31644073 -0.095351994 0.20272961 0.045881048 -0.15386346 -0.08033748 -0.049867257
-0.0128821945 0.004624995 0.034434803 0.042505857 -0.007910225 0.029893093 0.009364798 0.020204192
0.021975242 -0.0054266606 0.00018496018 0.005774258 0.021202382 0.0053645363 0.01130188 0.0152558945
0.011067242 0.007687614 -0.00034656256 -0.018479016 -0.029717935 0.011893543 -0.016097102 0.0023370548
0.013508839 -0.15165205 0.09793919 0.21573289 -0.05076808 -0.022327486 -0.05115564 0.10167498
0.08886492 -0.18393262 -0.12261026 -0.2520362 -0.15456036 -0.021336386 -0.11086661 -0.16597325
0.045357917 0.25250864 -0.0990124 -0.36410668 -0.14642298 0.2672391 0.26722017 0.050513852
0.049502272 -0.0448398 -0.024616614 0.026738964 0.020239143 0.004151203 -0.0013507887 0.012823646

conv3.bias f4 [32]
00000000: 5157 49bf 279c 433e 0dd7 5abf f6be 85bd
00000010: b294 e93b fcca 29bf 81c5 4fbf c41d 13bf
00000020: f12b c0be 9d9f 14bf cea6 adbe 47e8 aabd
00000030: ce53 6ebf 0051 1bbf ba07 20be f278 83bf
00000040: 68bd 4bbf 1d3b dcbe 3db7 b5be e27d 3fbf
00000050: 032a 1dbf 4c0e 5cbf bec6 f1be 0763 e8bc
00000060: e472 88bf 38f1 74be 946f 3abf e7db 9dbe
00000070: 43f9 a7bf 7e14 bfbe 7184 0dbf c81e 39bf
-0.7864886 0.19102536 -0.8548439 -0.065305635 0.0071283216 -0.66325355 -0.8116074 -0.57467294
-0.37533525 -0.5805605 -0.33916324 -0.08345085 -0.93096626 -0.6067047 -0.15627947 -1.0271285
-0.79585886 -0.4301385 -0.35491362 -0.74801457 -0.6139223 -0.85959315 -0.4722194 -0.028367532
-1.0660062 -0.23920143 -0.72826505 -0.30831835 -1.3122944 -0.37320322 -0.55280215 -0.72312593

fc.weight f4 [10, 32]
00000000: bed4 fbbd 81d5 9bb8 6f94 263f bd2c 15bd
00000010: 263a ea3d dee7 b63e d611 8dbd aa78 2abe
00000020: 8ef3 f5bd a2e4 513e b1ea a73d eeda 19bc
00000030: 8e74 43be d489 0bbf e617 4c3e 79a5 a03d
00000040: b5c4 e7bd 6c00 063f 10ae e4be 719b b2be
00000050: f3e2 2dbe 3678 353e 7c86 88be 28f0 843d
00000060: 4950 80be ac7d 813e c568 ebbd b143 18bf
00000070: 59e5 a0bd 2c11 cebe 70d8 063d 4a04 e2bd
00000080: 6aaf b93b 6e6e 1e3f 7c6e 843c 83b2 773d
00000090: a53f 69be 9644 9fbe ed23 bebd d25a a0be
000000a0: c2f8 acbd 083d 7fbe 0676 c3be 9f52 893d
000000b0: 55e2 9dbe 23d5 cfbc a504 bc3c 51ac 96be
000000c0: ce76 08be c407 55bd be59 003f 20db af3c
000000d0: 089b d3be 82d9 bebe a1d9 c2bc 23e0 363f
000000e0: a7bb 02be 7460 7bbe b625 563e 8aa8 863e
000000f0: 1915 bfbd bed2 73bd 13c1 793e fbef 75be
00000100: 272e f3bc 010a 03be 70c0 05be 735c 243d
00000110: ba13 d2be bcce ef3d 1974 153f 7fdc 3ebc
00000120: 6693 94be accc 2e3e 6940 543d c4e9 df3c
00000130: a9c1 303e 08cd d8be d509 983e 0c01 a2be
00000140: 442f c33d e576 4b3e 372a 263e 49ac 5f3e
00000150: eca0 9b3d b6df 1ebd cae4 843d 02f7 8ebe
00000160: d686 e93d 557e babd 209b 10bc 4333 6dbd
00000170: 557c 823d 929e 9c3e 1902 1b3f 3fcf efbe
00000180: 3738 2b3f aabf 1cbe 25cb b9be d1d6 4e3d
00000190: a65a 68be 86fd 6c3e 602d 273d 134a 96bd
000001a0: 4b11 e13e 42cd 0f3e 1163 b8bd 1bdf 5c3d
000001b0: 152c 9bbe 1e8a 11be 7885 43bd fc8e e63e
000001c0: dcfb 08be 6862 dcbc c3a8 b83c 645a abbe
000001d0: da39 9a3e a6da 00be b464 00bd 261a 45be
000001e0: ef30 0dbd 9156 f4be b536 b9bc 7297 013e
000001f0: 3b77 6a3d 2aa4 fe3e 1f5a 86be e45e dd3d
00000200: 7a45 17be c47a 01be a8c4 253c 7b2b d23d
00000210: 92a3 ccbd 9233 c2bd 736c 29bd e101 3c3c
00000220: 3e2a 0bbd 592b b1be 98b0 183d 9d0c 093d
00000230: acaf a53e 4a1c 213f d23b 70be 3f49 f0be
00000240: 28c9 fb3e 2157 58be f299 3dbe e3b3 0cbc
00000250: 9abc a6be b68e 313d c080 3cbc 6afa 483c
00000260: 8cca e63d 9982 a13e fe90 9bbe fa02 bd3e
00000270: e19a c3bd 57a3 64be 12ca 003d e76c 083f
00000280: 4003 733e f4e4 95be 2882 73be 4266 293c
00000290: ce89 1b3f f3b9 8a3e 2bd6 75bc e768 0a3e
000002a0: cb6d 9f3e e8d7 aebe 44cf e73e c602 ad3a
000002b0: 7f4e 13be 4b92 93be 2229 033e 606a c43e
000002c0: 32a0 d6bd f5a6 923c 5edf 95be 3b6d 833e
000002d0: 9c87 873e 75f2 1bbe 9ac1 1bbd 8f2f f9bd
000002e0: cada 4e3d 15a2 6cbe 6e80 f23c 6823 863e
000002f0: 9e5d 35be fc67 14be 6a5f 49be 86a6 c23e
00000300: a054 dbbe 0eb6 f63d 1c4a 56be 0b78 6bbc
00000310: 08b4 5c3d 8635 813e bf59 713d 5fd8 3f3e
00000320: 5221 88be 7a67 3dbe 1247 27be 75c0 353d
00000330: 260b 04be 176c fdbb 5667 13be 2255 3d3e
00000340: 2dae 053d 29aa e13e d4ae 883d bf44 183f
00000350: a71e 503e aee9 f93e bd15 48be 37f1 cebb
00000360: def5 49be e2ab aa3e 66c9 573c be97 eabe
00000370: 64a3 f1bd ed17 77be a6b0 2fbd edb0 fb3d
00000380: cd86 58be 5a79 8e3e 09b4 6d3e 78c0 c3bd
00000390: d154 273e 89d2 0fbf e38c 093d 3034 43bc
000003a0: 7c91 8b3d 0465 aa3d f893 2dbc e872 35be
000003b0: c5d5 fcbd 8016 fe3e 37b5 ac3e 594f 7bbe
000003c0: 1444 f43a ef71 f6be b8f6 c33c 3d2d 4dbe
000003d0: c0fe 97be 1b4d b3be 8ea9 1c3f 442b 2cbe
000003e0: 3ef4 42be 5d67 ee3e a09c aabd 0675 973d
000003f0: b8bd fdbd fffc e83e bf78 51be 4316 dabe
-0.12296437 -7.430744e-05 0.6507024 -0.03641962 0.11436872 0.35723776 -0.068881676 -0.16647592
-0.12009345 0.20497373 0.08199061 -0.009390576 -0.19087431 -0.54507184 0.19930992 0.078440614
-0.11316816 0.52344394 -0.4466405 -0.34884217 -0.16981106 0.17721638 -0.26665103 0.06491119
-0.25061253 0.25291193 -0.114945926 -0.5947829 -0.078562446 -0.40247476 0.032921255 -0.11035974
0.005666663 0.6188725 0.016165964 0.060472976 -0.22778185 -0.31107014 -0.09284196 -0.3131929
-0.08445884 -0.24925625 -0.38175982 0.06705212 -0.3083674 -0.025370186 0.022951433 -0.29428342
-0.1332657 -0.05200936 0.50136936 0.021466792 -0.41329217 -0.3727532 -0.023785414 0.71435755
-0.12766896 -0.24548513 0.20912823 0.2630046 -0.09330196 -0.05952715 0.24390058 -0.24017327
-0.029685093 -0.12796785 -0.1306169 0.04012723 -0.41030675 0.11709353 0.58380276 -0.01164925
-0.29018706 0.17070264 0.05181924 0.027333148 0.17261375 -0.42343926 0.29695 -0.31641424
0.095304996 0.19869573 0.16227041 0.21843065 0.07599053 -0.038787566 0.064889506 -0.27922827
0.11402671 -0.09106127 -0.008826047 -0.057910215 0.06371371 0.3058973 0.60550076 -0.46837804
0.6688265 -0.15307489 -0.362878 0.050497834 -0.2269083 0.23143587 0.040814757 -0.07338347
0.43958506 0.14043143 -0.090032704 0.053923707 -0.3030707 -0.14212844 -0.047734708 0.45030963
-0.13377327 -0.026902393 0.02254141 -0.334674 0.30122262 -0.12583408 -0.031346038 -0.19248256
-0.034470495 -0.47722295 -0.022609094 0.12655428 0.057242613 0.49734622 -0.26240632 0.108091146
-0.14772597 -0.12644488 0.010117687 0.102621995 -0.09992136 -0.094824925 -0.04136319 0.011475057
-0.033975832 -0.34603384 0.037277788 0.033459295 0.3236059 0.6293379 -0.2346032 -0.46930882
0.49176908 -0.21126987 -0.18515757 -0.00858781 -0.32565767 0.04334899 -0.011505306 0.012266735
0.112691015 0.3154495 -0.30384058 0.36916333 -0.09551025 -0.22327934 0.03144271 0.5329117
0.23731709 -0.2927624 -0.2378012 0.010339322 0.6075715 0.27094993 -0.015004675 0.1351658
0.31138453 -0.34149098 0.4527532 0.0013199679 -0.14385413 -0.2882255 0.1280866 0.38362408
-0.104797736 0.017901877 -0.29271978 0.25669274 0.2647065 -0.15229209 -0.03802643 -0.12167274
0.050501622 -0.23108704 0.029602256 0.26198888 -0.17711493 -0.14492792 -0.19665304 0.38017672
-0.42838 0.12046443 -0.20926708 -0.014371882 0.05388263 0.25236148 0.05892348 0.18734883
-0.2658792 -0.18496504 -0.16335705 0.044372994 -0.12894878 -0.0077338326 -0.14394888 0.18489507
0.03263681 0.44075134 0.06673971 0.594799 0.20324193 0.48811096 -0.19539542 -0.006315376
-0.19722697 0.3333426 0.013170576 -0.45818895 -0.117987424 -0.2413022 -0.042893074 0.12289605
-0.21145172 0.2782696 0.23213209 -0.09558195 0.16340949 -0.56180626 0.033581626 -0.011914298
0.06814858 0.083200485 -0.0105943605 -0.17719615 -0.12345461 0.4962654 0.33732006 -0.24541987
0.0018636012 -0.481338 0.023921356 -0.20036788 -0.29686546 -0.35019764 0.6119622 -0.1681338
-0.19038484 0.46563235 -0.08330655 0.07395367 -0.123897016 0.4550552 -0.20456217 -0.4259511

fc.bias f4 [10]
00000000: 5905 5f3e bf93 fb3f 469b eebe ff77 c3be
00000010: e0f7 6a3e db7b 11bf 0c69 8cbf cead fb3e
00000020: 8b9f b63d c226 f6be
0.21779384 1.9654464 -0.4660284 -0.38177487 0.2294612 -0.56829613 -1.0969558 0.4915604
0.08917149 -0.48076445
