savefile/mnist/test/checkpoint/ckpt_best.pth (torch_old, 38070 bytes, 8 tensors)

conv1.weight f4 [6, 1, 5, 5]
00000000: a947 10be d6e6 9cbe 99c7 8fbe 33df 6fbe
00000010: 122c bdbe d1b4 b0bd d8d8 d4bd f092 9bbe
00000020: 8764 c8bd f620 a2be 3533 293d 5084 f8bd
00000030: f33c 4cbe 99f6 0abf 13a6 e4be 74cb 64be
00000040: b8cf 5ebe 54cc 89be 7aab adbe 9de2 adbe
00000050: 0248 67be d203 90be 58ee aebe e166 d3be
00000060: f218 edbe 526e 6dbe b88a 5dbe d09c c7be
00000070: 604c f4be ae31 09bf 8812 8fbd c2e1 50bd
00000080: e192 9abe 9d8d fabe b251 2ebf b5bd 223d
00000090: 73a3 f1bd 2f5b 2ebe 41b0 37bf 3ea1 10bf
000000a0: 7807 a2be d8cf c2be 45db 0fbf e4a2 14bf
000000b0: 232a 20bf f545 27bf fc59 c5be eaee 17bf
000000c0: 96c6 2bbf 17dd 24bf 48f5 c0be d948 02bf
000000d0: 0ed1 48bf d739 10bf b6ac 3cbe 3c88 1fbf
000000e0: 4de2 3ebf 138b 3abf 0701 1ebf 9f7a 02bf
000000f0: 46e2 fabe 0bfa 0cbf 4bc1 1bbf 3192 21bf
00000100: 573e f6be 27b0 0dbf 7693 1fbf 7e55 2dbf
00000110: 99f9 1ebf f8aa c0be b72f 983c 2026 94be
00000120: a54f a3be 5036 b0be e0a3 93be 7330 7bbe
00000130: aa9c 20be 80fd 823d c96f 8b3d e7ec 97bd
00000140: 86d6 a7be 2282 b3bc 9305 96bd 167a 583b
00000150: 2002 b33d 6c05 f2be 9007 b5be 2241 28be
00000160: d584 603e e6a0 aa3e 95c5 e8be 0d0b 15bf
00000170: 819f 8cbe 48b3 0ebe b521 413d 30ac adbe
00000180: 8015 483c ba9c dc3d bb88 bb3e 6e5f a83e
00000190: 7fbf e4be 838e 97be 07db 703d 5f8c c83d
000001a0: 2e10 4abd cf66 86be da27 51bb 54b1 963b
000001b0: bb1e 00be 9287 293e a8b1 0b3c b46f d5be
000001c0: e178 aebe 4cac babd e92a 0e3b 7a65 f5be
000001d0: 17f2 53bf 59c5 07bf 005e d7be c59e 9abe
000001e0: 87a5 81bf 613e 4bbf 6a9f dabe 16dd 9ebe
000001f0: e27a 8dbe 8eeb b0bd 19b8 07bf 74bc 15bf
00000200: cd99 48bf 7e54 8fbf f7e3 bfbe 3f04 35bf
00000210: 4b45 26bf 1cb0 5ebf 46b3 a1bf 9339 cebe
00000220: 6ced 3abf 431c 13bf e633 70bf 46b1 c1bf
00000230: 751b 3fbf 84ff 44bf 7ffe 46bf fa75 b9bf
00000240: 8ba9 e1bf d94f 53bf 1108 5abf f20d afbf
00000250: 4883 03c0 4fbb 03c0
-0.14089836 -0.30644864 -0.28081968 -0.23424987 -0.36947685 -0.08628238 -0.10392922 -0.30385542
-0.09784799 -0.31665772 0.0413086 -0.121346116 -0.19945125 -0.5428253 -0.44657955 -0.22343236
-0.21758926 -0.26913702 -0.3391989 -0.33961955 -0.22586063 -0.28127915 -0.34166217 -0.41289428
-0.46308094 -0.23186615 -0.21634948 -0.38986826 -0.4771452 -0.5359143 -0.069859564 -0.05099655
-0.30190185 -0.48936167 -0.6809341 0.0397317 -0.117987536 -0.17026971 -0.7175332 -0.56496036
-0.31646323 -0.38049197 -0.56193954 -0.5806105 -0.62564296 -0.6534112 -0.38545215 -0.5934893
-0.67099893 -0.64399856 -0.37687135 -0.50892407 -0.7844399 -0.56338257 -0.18425259 -0.6231725
-0.7456406 -0.7286846 -0.6172032 -0.50968355 -0.49000758 -0.55069035 -0.60841817 -0.63113695
-0.48094437 -0.5534691 -0.6233438 -0.67708576 -0.62099606 -0.3763044 0.01857744 -0.28935337
-0.318967 -0.34416437 -0.28835964 -0.245302 -0.15684763 0.063960075 0.06808431 -0.074182324
-0.32780856 -0.021912638 -0.07325282 0.0033031753 0.0874064 -0.47269762 -0.35357332 -0.16431096
0.21925671 0.3332588 -0.45463243 -0.5821999 -0.27465442 -0.13935578 0.047151286 -0.3392043
0.012212157 0.10772081 0.36627755 0.32885307 -0.4467735 -0.29600915 0.05880263 0.09792399
-0.049331836 -0.26250312 -0.0031914623 0.004598776 -0.12511723 0.16555622 0.008526243 -0.41686785
-0.34076598 -0.09114894 0.0021693057 -0.47928983 -0.82791275 -0.53035504 -0.42063904 -0.30199257
-1.012864 -0.7939206 -0.42699748 -0.3102805 -0.27632815 -0.086386785 -0.53015286 -0.5849068
-0.7835968 -1.119766 -0.3747861 -0.70709604 -0.6494948 -0.8698747 -1.2632835 -0.402783
-0.7301853 -0.57465 -0.9382919 -1.5132225 -0.7465127 -0.76952386 -0.7773208 -1.4489129
-1.7629865 -0.8254371 -0.8516856 -1.3676131 -2.0548878 -2.0583074

conv1.bias f4 [6]
00000000: 16cc bfbc 961e d83e a2d5 e0bf 31ab d1bf
00000010: 9d98 e8bf 5975 4c3f
-0.023412745 0.42210835 -1.7565196 -1.6380368 -1.8171574 0.7986656

conv2.weight f4 [16, 6, 5, 5]
00000000: 67a0 ebbd ecb6 24bd f2cf f6bd ea8f 76bd
00000010: c8cb eebd a3b0 cfbc 122b 56bd 1409 3cbe
00000020: 91ed 0ebe 16b9 41be 52f6 13bd 0b4a 14bd
00000030: fd29 2bbe ab68 26be bb98 29be f2a4 b5bd
00000040: c1bd 00be 93e9 2cbe 7a84 8abe 816a cebc
00000050: b64c c5bd 1281 3fbd b0d9 15be e14d 0bbe
00000060: 201d 0e3d 69d7 b53c c5f1 d2bc a26b 9fbd
00000070: 0dbe f0bd 77fb 5ebe c7ed 69bd 57e7 e0bd
00000080: 2a7e 12be 408c 84be 3156 9fbe 16ae e0bd
00000090: c5c5 703b 3459 d7bd 7c8b bcbe d592 78be
000000a0: 6610 bdbc c60e 08be 38fc 62be ca0b aebe
000000b0: 5e72 33be dc78 15be d100 febd 5c63 a3be
000000c0: 9b02 66be 12f2 04be cbe8 e1bd 58a8 e4bd
000000d0: 51e6 20be 13d5 f3bd 2b3c dbbd e244 45bd
000000e0: 941c 06be 332e f3bc 6d27 b4bc 5af4 0c3c
000000f0: db6b acbd e353 fbbd 0a73 c9bd c223 7cbd
00000100: 9df3 97bd c6e7 a1ba e7b7 94bd 6351 c7bd
00000110: fd7c 3dbd 7b6d 803c fd6e 44bc 50ab 8c3b
00000120: b8be 7cbd ae36 6b3d 0d48 50bc 6f49 f9bd
00000130: dfd6 3c3d 7c19 bbbd 70ca 02be 4b5e bcbd
00000140: e246 0abe 1930 c1bd 4d25 9dbd 350c 10bd
00000150: 2be6 05be f8c3 60be 3c24 e0bd 7de8 a7bd
00000160: 78e8 8fbd 88d2 04be 84fa 5ebd 24f0 3cbd
00000170: 2fc2 41be 3989 0bbe 325d 373d 47af 92bd
00000180: 7b88 ffbd 54fe 80bd 2821 96bc c210 8dbc
00000190: b198 dcbd f9bf 4bbe 8ac5 3ebe bf26 1cbe
000001a0: 62a1 52be a1f9 86be b859 16be ad2c 63be
000001b0: 00ee 94bd 353d e1bd 2549 24be 72b3 52be
000001c0: 5369 30be f544 a6bd b1eb 39bd f3bf eabd
000001d0: ec35 43be 899e bdbd 09b5 26be 6e34 93bd
000001e0: 9caf 95bd e9be e9bc ffa0 87bd 5b83 bebc
000001f0: 701d e7bd 0d73 0abd 7f38 793c 3fbc a3bd
00000200: 6008 80bc 05ca d93a b369 07bd cc4f 84bd
00000210: 9f8d 5cbd aaf6 19be 0e1f cabc 99d3 0cbe
00000220: 03d7 dd3d 2a3c 1dbd 5cad b8bd 6813 09be
00000230: 6114 ef3d b0d7 913c 7d8b 8cbd 4607 aabd
00000240: 2189 4dbe a415 05bd 0527 a9bd cc52 fbbc
00000250: 60ff b43c e68f b1bd 450e 9fbd e8a8 35be
00000260: 5302 e8bd 5b95 09be b9ca 2b3e 5e21 26be
00000270: abea 8ebd e805 92bd 4b70 73bd f745 a2bd
00000280: d5e2 e0bb 4a46 efbd dcd2 cf3d 8a6e a23d
00000290: 1171 c5bc 27a5 eebd 1949 6f3a 26b8 7a3e
000002a0: 958b 3d3e 4f04 013e 79d6 29bc 1c97 223d
000002b0: d8c2 f73d fa9e 183e e6bf a23d 1d38 04be
000002c0: 0e3f 4dbe aa6e f6bd 3e79 123e 4bc9 cd3d
000002d0: 0094 ffbd 7fd1 8bbe 731a ab3d 07a9 223e
000002e0: e8d0 423e f51a c7be 3232 90be 4936 f43d
000002f0: 172d bc3e c819 923e 41d6 75be 6f3c 51be
00000300: 2061 ee3e 862b 053f 00fc 5e3e a08b dbbe
00000310: a618 473d b8b5 dc3e 716c a23e bc4e fd3d
00000320: 371c 6a3e 708a 133f 1dfb b63f e2bd f23f
00000330: 3e37 d53f adfb 8f3e 3144 223f 80ca a23f
00000340: 2093 d83f 3bf2 8b3f 8ed8 0c3e 20f1 e33e
00000350: 3b30 843f ca3d 833f d156 113e 9eaa 4d3e
00000360: 4adb 1e3f d361 163f e775 ee3d 3c34 18bf
00000370: b78c 4e3f bf97 573f f7f9 933e 83ad 08bf
00000380: e97f 40bf 1487 39bd 578b 583e a523 14bd
00000390: 121a a8be ef53 58be 0d23 063e e391 873d
000003a0: 19ea 00bd 55b1 87be b210 e1bd f931 e63e
000003b0: f1f8 253e 54a3 c9bd 0d2c 92be e010 0fbe
000003c0: 9f7e 123d 8554 31be 5ef3 a8be acc6 91be
000003d0: 62a0 07bd 5d9d 20be 0863 0fbe fe9e 25be
000003e0: bde8 0a3e 462d 803e 78db 44be 6948 bc3e
000003f0: 9d90 c0bc 71f5 4fbe c75d 23be 72cd 273e
-0.11505204 -0.04021351 -0.12051381 -0.06019584 -0.11659962 -0.025352782 -0.05228717 -0.18362838
-0.13957812 -0.18918261 -0.03612358 -0.036203425 -0.16715236 -0.16250865 -0.16562168 -0.088693514
-0.12572385 -0.16885976 -0.27054197 -0.02519727 -0.09633772 -0.04675395 -0.14633822 -0.13603927
0.034695745 0.022197442 -0.02575005 -0.07784201 -0.11754999 -0.21775614 -0.057111528 -0.109816246
-0.1430594 -0.25888252 -0.31120446 -0.10970704 0.0036738974 -0.10515061 -0.36825168 -0.24274762
-0.023079108 -0.13286886 -0.22166526 -0.3399337 -0.17524096 -0.14596885 -0.124024995 -0.31911743
-0.22461931 -0.12982967 -0.1103073 -0.111649215 -0.15712859 -0.11905875 -0.107048355 -0.048161395
-0.13096839 -0.029685115 -0.021991456 0.00860318 -0.08419009 -0.122718595 -0.09836395 -0.06155754
-0.074195124 -0.0012352399 -0.07261639 -0.0973232 -0.046261776 0.015677204 -0.011989352 0.004292883
-0.06170532 0.057425193 -0.012712491 -0.121722095 0.046103355 -0.0913572 -0.12772536 -0.091976725
-0.13503602 -0.09433002 -0.0767313 -0.03516789 -0.13076083 -0.21949756 -0.10944411 -0.081986405
-0.07026762 -0.12970936 -0.05443813 -0.046127453 -0.18921731 -0.13626565 0.044766612 -0.07162338
-0.124772035 -0.06298509 -0.018326357 -0.017219905 -0.10771311 -0.1989745 -0.18630043 -0.15249155
-0.20569375 -0.26362327 -0.14682662 -0.22185011 -0.072719574 -0.109980024 -0.16043527 -0.20576265
-0.17227678 -0.08118621 -0.04539079 -0.11462393 -0.19063538 -0.09258754 -0.16279997 -0.071877345
-0.073088855 -0.028533416 -0.066225044 -0.023255995 -0.11284912 -0.033801127 0.015211224 -0.079948895
-0.015628994 0.0016615993 -0.033059787 -0.064605325 -0.053845998 -0.15035501 -0.024673011 -0.13752593
0.10832026 -0.038387455 -0.09017441 -0.13386309 0.11673809 0.017803043 -0.06862543 -0.083021685
-0.20071842 -0.03249134 -0.082593955 -0.030679129 0.022094429 -0.086700246 -0.077663936 -0.17740214
-0.11328568 -0.13435881 0.16776551 -0.16223666 -0.06978353 -0.07130033 -0.059433263 -0.07923501
-0.006862978 -0.116833284 0.1014764 0.0793124 -0.024101766 -0.11652594 0.0009128019 0.2448431
0.18510278 0.125993 -0.010366076 0.03969489 0.1209771 0.14904395 0.07946758 -0.1291203
-0.20043585 -0.12032826 0.14304063 0.10048159 -0.12479401 -0.2730827 0.08354654 0.15884791
0.19025004 -0.38887754 -0.28163296 0.119244166 0.3675315 0.28535295 -0.24007513 -0.2043321
0.46558475 0.52019536 0.21775818 -0.42879963 0.04860749 0.4310739 0.3172336 0.12368533
0.22862326 0.57633114 1.4295384 1.8964198 1.6657484 0.281217 0.633853 1.2718048
1.6919899 1.0933298 0.13754484 0.445199 1.0327219 1.0253232 0.14193274 0.20084617
0.6205336 0.5874302 0.11643582 -0.59454703 0.80683464 0.8421592 0.28901646 -0.5338976
-0.75195175 -0.045294836 0.21146904 -0.036166806 -0.3283239 -0.21125768 0.13099308 0.066196226
-0.031473253 -0.2650248 -0.109895125 0.4496 0.16208245 -0.098456055 -0.28549233 -0.13971281
0.035765287 -0.17317398 -0.32998174 -0.28471887 -0.033111937 -0.1568503 -0.14002621 -0.16173932
0.13565345 0.2503454 -0.19224346 0.36773995 -0.023506457 -0.20308472 -0.15953742 0.16386965

conv2.bias f4 [16]
00000000: 8e4b 51be 1eec f23e 2320 95bd 5475 39be
00000010: 7ac0 44be c03b c93e f716 15bb c1e1 43bd
00000020: c984 efbd 6f8e 03bf 52cb a7bd 862f 7ebd
00000030: 0eb0 03be 39a1 11be 94a9 03bf 235a c1bd
-0.20438978 0.47445768 -0.0728152 -0.18111163 -0.19214049 0.39303398 -0.0022749284 -0.047822718
-0.11695249 -0.5138921 -0.08193077 -0.06205704 -0.12860128 -0.14221658 -0.5143063 -0.0944102

conv3.weight f4 [16, 16, 5, 5]
00000000: 6f8f 863e 21f6 833c e3b8 813e 3aac b53e
00000010: a5d5 04bd 5736 523e 8265 973d e031 cf3d
00000020: c214 193e b473 de3b c579 b13d 137f 0b3e
00000030: 743f e63c 9b68 333d 7c43 16bd 8dcb edbb
00000040: f779 52be a890 9e3c 90bf b3bd 09b3 85bc
00000050: bd21 5d3d 1eb4 133b 4c35 5abd f3b9 9a3c
00000060: 5dd8 333d 1178 14bd 89fa 4bbe 406b 11be
00000070: 8829 59bd 0090 0b3e ba9a 49be ff04 a5bd
00000080: 5e7c 38be 0ce2 22be 4325 a5bd 2db2 14be
00000090: 939e 0dbe 8ea6 0abe b1e7 6ebc 9d32 abbd
000000a0: 59e2 24bd 7e20 2dbe cbad e5bd 157d f4bd
000000b0: 8494 84bc 2112 393c ed0b 743b c709 b8bd
000000c0: 4a94 9b3c 509a 99bd 89ab 8a3c 3c2e c93c
000000d0: 887e 233b 1ebe 7e3d 86aa 30bb 5774 d6bc
000000e0: c419 263d 2a29 0cbe f8f0 953d a604 aa3d
000000f0: 47f0 39bd d519 c5bd d792 03bb 9ac0 4cbb
00000100: bccd 613a ab5e c93d 5691 7dbd c468 12bd
00000110: 9e8f 2dbc 8a5b 1c3d 3c41 24bd ac98 4f3d
00000120: 2a9c 2cbd d42d 90bc 27f1 ba3b dff3 92bd
00000130: b7da c23d 444d 7c3e d6c2 1d3e f3e3 993d
00000140: 8d24 02be 3ad2 f43d b6da 1a3e 770e a6bc
00000150: b009 b03d 1795 713c 2fe5 e43b e20b 81bd
00000160: 2f00 a43d cbac 073e 5f21 553a 3866 583d
00000170: e108 893d 416f c33d 0011 bb3d 280c 94bd
00000180: 01e8 4a3d 5ca5 de3c ab59 d6bd de44 bb3c
00000190: aeca 083d d13b 3c3d 8d04 aabd 7d05 f7bd
000001a0: fe20 383d 29b6 bfbd dfeb 20be 6e47 60bd
000001b0: aaef 153c f28a 063e 43f0 58bd 7863 3cbe
000001c0: ea32 d5bd c596 c9bd feef 833d c0d3 6abc
000001d0: 1ce5 04bd dd35 9cbc 7479 a6b9 fb65 debc
000001e0: 80c0 36bd 33c2 0cbe 234d e7bc eb3e 6f3d
000001f0: fc05 c5bb a083 00be 936a 9bbe 70ac 6cbe
00000200: 3e05 91be 8f40 ddbd 1c34 7abe e6f9 87be
00000210: d277 7fbe eebb adbe e4cb 0ebe ed7a 7fbe
00000220: a359 edbe e1b0 dabe 305d d7be 2f14 8abe
00000230: 0c51 81bd abf9 abbe 8ef9 99be e777 96be
00000240: 61da 6bbe 22cd 46be 79ce bcbd 9f10 20be
00000250: 2967 a3bd 07ec 6bbe 8cc0 4d3d 88c3 03bd
00000260: 9f3a a3bc 5bd8 8abc 85a3 fa3a 935e 74bc
00000270: caaf 973d fe79 67bd 7e98 043d d02e 543b
00000280: d8a8 f1bc 3856 63bd c505 15bd 62b9 8d3d
00000290: 6d2b 04bc eb6d 0d3e 9805 33be 1683 c43c
000002a0: 179d a4bc f5d3 d93d 3843 3cbd bc46 503c
000002b0: bbb6 93bd adbc 47bd 3fca 49be 287f 653d
000002c0: a204 563c ba3b 3c3c 7cf5 fd3c 3fad 713d
000002d0: 240a 71bd e142 4bbd e028 39bd 11ab 5bbd
000002e0: b079 7dbd 8085 1ebd 9e2b 09be d1b3 26be
000002f0: 7397 693c 9523 923d ede2 09bd 74b2 36be
00000300: 68c0 0b3d 4a1a 19bd ae5e 7d3d 0c96 62bd
00000310: d4e9 b33b f4f6 b2bd 2529 f8bb a507 1e3c
00000320: e182 f13d 0c00 e8bd aeba a43b bccc 7f3d
00000330: beb8 5d3a d073 1a3e 2ecc 823b 85d7 743d
00000340: 4811 db3c 724b 68bd 697d 2abe e0d1 d8bd
00000350: 57ce e9bc 3166 903d fdec 993c 3d65 b0bd
00000360: 11f7 5cbd 765d be3c 5206 6bbc 23c3 423c
00000370: 08cf fa3c 56d3 03bc 646f 8cbd 8f0c 4e3d
00000380: 290b f9bd 806d 083d 75fd c3b7 f221 01bd
00000390: 9fef 2a3b ec61 9bbc 79b5 c43d b65f 9cbe
000003a0: bba6 b3be 2f37 64bd 15d1 dcbd cbc8 87bd
000003b0: 578c aebe 1205 c5be 92e3 19be 811a 49be
000003c0: 1923 14be 4632 03bf 2eb1 a3be 9712 82bd
000003d0: 8fec a1bd 4056 f8be a8d9 5cbf 3e3c a3be
000003e0: a881 b6bd d42c 65be 7e5f 2e3c 4100 dabb
000003f0: f7d5 6a3d 7f8f 463e b731 743d 4159 bcbc
0.26281306 0.016108574 0.2533637 0.3548296 -0.03243031 0.20528542 0.07392408 0.10116935
0.14949325 0.006788695 0.08665804 0.13622694 0.028106429 0.04380093 -0.036685452 -0.007256931
-0.20554338 0.019356087 -0.08776772 -0.016320722 0.053987253 0.0022537778 -0.053273484 0.018887496
0.043907512 -0.036247317 -0.1991979 -0.14201069 -0.053018123 0.1362915 -0.1968793 -0.080575936
-0.18016192 -0.15906543 -0.08063748 -0.14521094 -0.13830023 -0.13540098 -0.014581607 -0.08359263
-0.040254924 -0.16906926 -0.11214789 -0.1193792 -0.016184099 0.011295826 0.0037238554 -0.0898624
0.018991608 -0.07500136 0.016927497 0.02455818 0.0024947245 0.06219303 -0.0026957109 -0.026178522
0.040551916 -0.13687578 0.07321352 0.08301668 -0.045395162 -0.09624068 -0.0020076537 -0.003124273
0.00086137257 0.098325096 -0.06190618 -0.035744444 -0.010593323 0.038173236 -0.040101275 0.05068271
-0.042141117 -0.017599978 0.005705017 -0.07175421 0.09514373 0.2463885 0.15406355 0.07514181
-0.12709256 0.1195416 0.15122494 -0.02027057 0.08595598 0.014745018 0.0069853286 -0.063010946
0.080078475 0.13249509 0.0008130278 0.05283186 0.06691147 0.095427044 0.09134102 -0.07228881
0.049537662 0.027178459 -0.104663216 0.022859987 0.033396415 0.045955483 -0.08301649 -0.12061594
0.04495334 -0.09360916 -0.15714978 -0.05475562 0.009151379 0.13138941 -0.052963506 -0.1839732
-0.10410102 -0.0984321 0.06442259 -0.014332712 -0.03244506 -0.019068653 -0.00031752477 -0.027148237
-0.044617176 -0.13745956 -0.028235024 0.058409613 -0.0060126763 -0.12550211 -0.30354747 -0.23112655
-0.28324312 -0.10803329 -0.2443394 -0.26557845 -0.24948052 -0.3393244 -0.13944966 -0.24949236
-0.4635745 -0.42713073 -0.42063284 -0.26968524 -0.063142866 -0.3358892 -0.30073208 -0.29388353
-0.23032524 -0.1941419 -0.09219069 -0.1563134 -0.079786606 -0.23039256 0.050232455 -0.032168895
-0.019925414 -0.01694887 0.0019122219 -0.014915126 0.07406576 -0.056512825 0.03237199 0.0032376535
-0.029499456 -0.055502146 -0.036382455 0.069201246 -0.008066994 0.13811462 -0.17482603 0.023988288
-0.020094438 0.10636131 -0.045962542 0.012712177 -0.072125874 -0.04876392 -0.19706057 0.05602947
0.013062628 0.011488849 0.031000845 0.05900311 -0.05884756 -0.049624328 -0.045204997 -0.05362994
-0.06188363 -0.038701534 -0.13395545 -0.16279532 0.0142573 0.07135693 -0.03366368 -0.17841512
0.03411904 -0.037378587 0.06185787 -0.055318877 0.005490521 -0.08738509 -0.007573264 0.009645377
0.11792541 -0.11328134 0.0050271368 0.06245111 0.00084580097 0.15083241 0.0039916253 0.059775848
0.026741639 -0.056712575 -0.16649403 -0.105869055 -0.028540773 0.070507415 0.018789763 -0.0861306
-0.05394656 0.023237925 -0.014344769 0.0118873445 0.030616298 -0.008045992 -0.068571836 0.050304946
-0.12160332 0.033307552 -2.3363837e-05 -0.031526513 0.0026082767 -0.018967591 0.09604926 -0.30541772
-0.35088143 -0.05571669 -0.10782067 -0.06630095 -0.34091446 -0.3848043 -0.15028217 -0.19639017
-0.14466514 -0.51248586 -0.31971115 -0.06351202 -0.07906448 -0.48503304 -0.8626962 -0.318819
-0.08911449 -0.22380382 0.010642884 -0.0066528623 0.05733296 0.19390677 0.059617724 -0.022991778

conv3.bias f4 [16]
00000000: da38 9dbe 6c7c b5be 3dc1 37be d027 38be
00000010: a112 60bf 855e 36be f467 c2bd 4227 d7bc
00000020: c521 3bbf 37c1 fdbd cd4a 2cbf 7862 29be
00000030: e8b6 97be 7b59 66bd 7369 17bf 70bf 13bf
-0.30707437 -0.3544649 -0.17944808 -0.17983937 -0.87528425 -0.17809494 -0.09492484 -0.026263837
-0.73098403 -0.123903684 -0.67301637 -0.16541469 -0.29631734 -0.05623768 -0.5914528 -0.57713985

fc.weight f4 [10, 16]
00000000: e516 6f3f 0018 8d3f 795e 1c3f b93c 77bb
00000010: 5787 a23e 6c75 8ebe c1c6 aa3d d17f e03e
00000020: 7dd3 2c3f c7eb cb3f 41c4 1c3f af3b c53e
00000030: 32b0 c8bc 280a db3e 0cd2 bb3e 6e44 833e
00000040: 4a0e 87bf 9902 90bd 9f13 85be 3fdf 81bc
00000050: 1dd1 6e3d 3d52 ce3e 3c21 8b3d d886 03bf
00000060: f191 fcbe d3ce 24bf ce26 1cbf 8586 c43e
00000070: c329 02be be63 5b3e cbbd e7bd f274 8cbe
00000080: 8773 9b3e d19c 383f 976c f43d c64f c83e
00000090: 136e d6bd bf93 5b3d fe52 25be fa17 da3e
000000a0: 4f37 92bf 5e27 b5bd b8e0 9a3c 6c6c 803e
000000b0: 4f45 6f3d ed6c c7bd 2486 0c3f 851f 58c0
000000c0: 202b d43d 2546 81be e70c bf3d 91e9 c2bc
000000d0: aa35 b1bd 9cad 913e b450 6bbe 3cc6 8fbb
000000e0: e6aa 1c3f aefa f53e fed0 0e3d df31 04be
000000f0: a33f a33d 0df1 c63c 8648 c8bd e4ce b93c
00000100: bafa d7ba 0208 7dbe 0e90 d4bd e753 4ebe
00000110: 482b 7b3e 6807 303e ba6d baba 16ff 2bbd
00000120: 0d76 39bd b3d1 39bf 757f 0d3e a2f3 32be
00000130: 39f7 3fbd 51d3 04be 465b f83e 36a3 fd3e
00000140: d792 d13e 68e2 5c3e 3b20 883e 5a4f 403e
00000150: 3838 1bbe e222 d7be aef0 11bd 5da4 323e
00000160: 571b f53e 32ba 1f3f 68af 743d 8f78 bc3c
00000170: fcd2 333e 07a6 bbbd 72ba 45bd a2c8 943f
00000180: 51e5 1d3f 2f38 65c0 9a4b b73e f7bb 083e
00000190: ee0d 72be 77e7 303e f4c3 433e 9a66 293f
000001a0: f95f 1bbf 5f4d f7be 8d7b d33e 9e1f 0b3e
000001b0: 2647 363e cc35 423d 2fc1 103f cbad c83f
000001c0: 9b40 1ac0 acb9 ae3e ca35 3cbf 1696 52bf
000001d0: 3663 173e 8915 783d da6a 3ebe 85f9 9dbf
000001e0: becd 8dbf 3bea d2bf 55de 13bf 5629 b5bf
000001f0: fc2b 263d d394 1bbf 78b1 a6bf 3a8b afbd
00000200: aec9 5b3e ba73 083f 08ca 703e 9486 453b
00000210: ee6a 4c3d 1c39 f7bd ce06 71be da8a 203e
00000220: 3308 3b3f bb95 db3e 1431 ad3c fb1f 86bd
00000230: d759 13bd d206 cbbd 3f1e 4e3e 6406 cd3e
00000240: 91a5 983e 55be 8a3f 6444 36be e62e ed3d
00000250: b075 ba3e 0237 a5bd 9fed aabd 447c 18be
00000260: 93f7 dd3e 0920 493f 4083 1fbd 7de4 8b3d
00000270: 1de3 33be 1b82 7e3e 022d 3bbe b0e6 65bd
0.9339431 1.1022949 0.61081654 -0.0037725403 0.3174388 -0.2782396 0.083386905 0.43847516
0.67510206 1.5931329 0.6123696 0.38522097 -0.024498079 0.42781186 0.3668369 0.25638145
-1.0551236 -0.070317455 -0.25991532 -0.015853522 0.058304895 0.40297118 0.06793448 -0.5137763
-0.49330094 -0.6437809 -0.6099671 0.3838388 -0.12711243 0.21424767 -0.11315497 -0.27432972
0.30361578 0.7211428 0.11934774 0.39123362 -0.10470214 0.0536077 -0.1614494 0.42596418
-1.1423129 -0.08845399 0.018905982 0.2508272 0.058415707 -0.09737573 0.5489218 -3.3769238
0.10359788 -0.2524883 0.09328633 -0.023793014 -0.08652814 0.28452766 -0.22980005 -0.004387645
0.6119827 0.48042816 0.03486728 -0.1290965 0.07971122 0.024284864 -0.09779458 0.022681661
-0.001647792 -0.24710086 -0.10379039 -0.20149194 0.24528229 0.17190325 -0.0014223375 -0.041991316
-0.045278598 -0.725856 0.13818152 -0.17475751 -0.04686663 -0.12971236 0.48507136 0.49538583
0.40932342 0.21570742 0.2658709 0.1878027 -0.15158165 -0.420188 -0.03562992 0.17445512
0.4787242 0.62393486 0.059737593 0.023006706 0.17560953 -0.091625266 -0.04827351 1.1623728
0.61678034 -3.5815542 0.35799867 0.13352953 -0.23638126 0.17275797 0.19117719 0.6617218
-0.6069332 -0.48301217 0.413052 0.1358628 0.17800578 0.047414586 0.56544775 1.5678037
-2.4101932 0.3412603 -0.73519576 -0.8226026 0.1478394 0.060567413 -0.18595448 -1.2341772
-1.1078413 -1.6477731 -0.57761127 -1.415324 0.04056929 -0.6077396 -1.3022909 -0.08571477
0.21463653 0.53301585 0.23514569 0.003014003 0.049906664 -0.120714396 -0.23537752 0.15677968
0.73059386 0.42887673 0.021141566 -0.065490685 -0.03597435 -0.0991341 0.20128725 0.40043938
0.29813817 1.0839335 -0.17799526 0.11581211 0.36417913 -0.080671325 -0.08346104 -0.14891154
0.43352947 0.78564507 -0.03894353 0.0683069 -0.17567106 0.24854319 -0.18278888 -0.056128204

fc.bias f4 [10]
00000000: 93cb d03b e55a 553e 5b37 fdbd a39b 74bd
00000010: 27c2 423d 785b 6abe 869a a53c dc0b dc3d
00000020: 988d 4f3c b7ac 1d3c
0.006371924 0.20835455 -0.12364074 -0.05971874 0.04754844 -0.22886455 0.020215284 0.107444495
0.012668036 0.009623698
