savefile/mnist/test/checkpoint/ckpt_best.pth (torch_old, 64375 bytes, 8 tensors)

conv1.weight f4 [6, 1, 5, 5]
00000000: f7bf 813d e48e 49bd c9d6 fbbd ec8e 0dbf
00000010: 8520 b73e 043b cebe 2757 cabe 3cd2 6dbe
00000020: 907b 53be 2d6c 113f 62b0 31be 0b1d 04bf
00000030: 4984 11bf d6b4 c0be d4bd 493e cc39 083f
00000040: 9c2d 05bf fa7a 1ebf 51aa ffbe d0ae 643e
00000050: 57c8 513f 4821 0b3e 2b16 6bbe 8217 09bf
00000060: 8c50 00be 8c5e 26bf 9cb6 2c3f 574a ed3c
00000070: 0d98 c83e a865 f7be 682f b13e bc24 9d3e
00000080: afbb a9bb 0926 52bf 7f93 01bf 726d c03e
00000090: b17b 1cbe 8efd 48bf dc79 18bf 9356 923e
000000a0: 55be f1be 766e 84bf 93be cebe 5df9 913e
000000b0: 8fca 9e3e 716b 61bf 19f8 1f3e c76b 6c3e
000000c0: b6b9 493e d2c9 8cbe f91a 6b3e 97fd e33e
000000d0: 7c1a c33e f0e7 ec3d 16cb d93e b1e0 9cbe
000000e0: c5e9 76be 357a 223e 2a8a 743e ee48 94be
000000f0: 8faa 73bf fde9 38bf 75cf 26bf 9d84 2abf
00000100: 0135 33bf e47e 5b3e 2fcd 9bbb ea0e c2be
00000110: d21f 82be 541d 083d a5ec 8d3d 506e 293e
00000120: 002e 8a3e 4763 e33e ae08 a13d b1e6 c5be
00000130: 2f62 30bc 98ae 0a3e 90ef f03e 4902 8e3e
00000140: e445 1dbf 9f49 adbe 9d1c 63be 8700 4dbe
00000150: bbcd 3f3f c07d 12be 465b 5abe 39f9 40bf
00000160: 4749 36bf 7880 763d b000 58bc 5501 2c3e
00000170: 0f26 a23c 5999 05bf 1f7c 54bf 4e77 f03c
00000180: 8476 c2bc 884b 293e 534b 1f3e e386 9bbd
00000190: 6a3a d83e 4739 babe fd13 ccbe 9a59 21be
000001a0: 467e bebe 0014 883e 5710 88bc 9e0f 4dbf
000001b0: 6e11 f5be 4c68 a93e 3714 c83e 8218 e8be
000001c0: 8d42 1fbf ae39 eabc 04e8 7b3e 84aa 643e
000001d0: a53b 38bf 993e 85be beb2 ecbd d089 9e3e
000001e0: c5a0 5cbe 16f9 3bbe 6d9a 27bf b82a c1bd
000001f0: 2966 d73e 1c8b abbe 2013 c73c 4eec 3d3c
00000200: 1995 4fbe 6f96 c4be 2884 a8be 9c1c eabb
00000210: 1b49 75bd b4a3 8cbe abca 27be 6561 b6be
00000220: 8983 6ebe 975a b4be 7173 85be 214e 8dbe
00000230: 3b17 5fbe 5ffd 81be ecfe 70be 5c3e d8bd
00000240: 7513 03bf 399b 0abe 5035 7abe 76d0 49be
00000250: 67e4 26be 9ade 1abe
0.063354425 -0.049208537 -0.122968264 -0.55296206 0.35766998 -0.402794 -0.39519617 -0.2322473
-0.20652604 0.5680569 -0.17352441 -0.51606816 -0.56842476 -0.37637967 0.1970132 0.5321319
-0.5202272 -0.619064 -0.4993463 0.2233231 0.8194632 0.13586915 -0.22957675 -0.53551495
-0.12530726 -0.6498802 0.6746614 0.028966112 0.39178506 -0.48319745 0.3460648 0.3069209
-0.0051798443 -0.8208929 -0.50615686 0.375835 -0.1528156 -0.78511894 -0.5956094 0.28581676
-0.47215524 -1.034621 -0.40379772 0.28510562 0.31013915 -0.8805457 0.15621985 0.23087989
0.1969975 -0.27497727 0.22959508 0.4452941 0.38106143 0.11567676 0.42537755 -0.30640176
-0.24112613 0.15866931 0.2388083 -0.2896189 -0.95182127 -0.7223204 -0.65160304 -0.666086
-0.7000275 0.21435124 -0.0047546844 -0.37902004 -0.25414902 0.033231094 0.06929902 0.16545987
0.2698822 0.4441168 0.07862984 -0.38652566 -0.010765596 0.13543165 0.47057772 0.27736118
-0.6143477 -0.3384523 -0.22178884 -0.20019732 0.74923295 -0.14305782 -0.2132388 -0.75380284
-0.7120556 0.06018111 -0.013183758 0.16797383 0.019793538 -0.52187115 -0.83001894 0.029353764
-0.023738153 0.16532719 0.15556078 -0.07594087 0.42232066 -0.36371824 -0.39859 -0.15756837
-0.37205714 0.2657776 -0.016609354 -0.80101955 -0.4786486 0.33087385 0.39077923 -0.45331198
-0.62210923 -0.028591957 0.24600226 0.22330672 -0.7196601 -0.2602432 -0.1155753 0.30964518
-0.21545704 -0.18356737 -0.6547001 -0.09431976 0.4207013 -0.3350457 0.024301112 0.011591984
-0.2027172 -0.38396022 -0.32913327 -0.007144524 -0.059884172 -0.27468646 -0.16385905 -0.3562118
-0.23292364 -0.35225365 -0.26064637 -0.2759867 -0.21786205 -0.2538862 -0.23534745 -0.10558769
-0.51201564 -0.13535775 -0.244344 -0.19708428 -0.16298066 -0.15123978

conv1.bias f4 [6]
00000000: e3a6 e2bf 82af c3bf cfc5 bdbf 8114 d5bf
00000010: 7c4c cebf 62cc ffbe
-1.770718 -1.5287936 -1.4825991 -1.6646882 -1.6117091 -0.4996062

conv2.weight f4 [16, 6, 5, 5]
00000000: 1b20 a3bd 6478 953e 7072 aa3e 6c91 3b3d
00000010: 52c5 293e 1969 49be 5a27 8d3d 11d7 c0bc
00000020: 03c9 0b3f 5967 e0bd 59a1 0a3e d634 333e
00000030: fe16 7d3e a19b 313e d700 33be 9118 673e
00000040: e13a 1c3e 50fe f03d 5c23 9bbc 71d2 1abe
00000050: 65fe cc3e 6dd9 c23e 363a d3bc 8a24 0ebd
00000060: 1d61 06bc 1a9c 22bb bbbd 42be a8c1 a2be
00000070: cd37 94be 28db 1abe 4c73 b3bc 3a92 1d3d
00000080: d252 fdbd 3202 dabe 18d4 8dbe 8473 52bd
00000090: e3dd a13d 76d5 74be d949 9abe f003 9fbe
000000a0: b30e 9fbe bf93 3bbe b876 96be 9143 96be
000000b0: e2ef b4be ee89 50be 42fd f6be b2f0 1bbf
000000c0: 8a75 b7be b026 6a3d 014a fabe a0e7 a1be
000000d0: 29e1 9cbe 161b 6fbe c822 6dbd 3974 febe
000000e0: e042 46be 0152 2fbe 792a 03bd d93f 2dbe
000000f0: afeb 04bf f68f 9dbe 0c41 65be fe7f 403b
00000100: b258 063d 33e1 cdbe 9f37 11bf d5d6 5bbe
00000110: 470f 81be 1c74 86be 8e7f a1be b76f e6be
00000120: 2d6b b6be d616 01be db5d 99bc acfb 7f3e
00000130: a922 37be 83cf 30be b5a1 b8be 18d9 1abe
00000140: c909 74bd 2528 5dbe fc7d e7bd e0f4 ddbe
00000150: 360a a93c 3f6c 123e 2d48 09be 5428 e2bd
00000160: d0d2 3bbe 4e92 16be 6d73 8dbc d991 003d
00000170: 2888 b53d 08a3 a13d ca54 aa3d 446d 503d
00000180: 4392 0b3e 7cca b33e 388b a13e 8989 183e
00000190: 3bb9 c1bd 0cdc 3ebe 9b7f 02be 7231 0abe
000001a0: d457 f83d 073c ad3c 5d69 903d 7821 9bbe
000001b0: 00d2 edbd 8eb9 dabd f447 1b3e 887b b53d
000001c0: 52b7 5abe 9dc1 fabc 18ad 2a3e cadb d53e
000001d0: abf2 a1bd 4ea0 5e3b 4c66 50be c783 5f3e
000001e0: dbe8 d23b 9ec9 84bd e8be c5be dcac e1bd
000001f0: 406f a4b8 12dd f53d 7080 48be 934f c3be
00000200: 3cb4 f5bd 5921 873c b5a7 0d3f c9d0 c6bd
00000210: 2d7e cf3b b8fc bb3e 2c3a e33e b436 823e
00000220: ed24 74be 9ec3 59be 6167 453e d67b ee3d
00000230: 6a0b 273e 886b a2be f2f3 c2be e7d5 63be
00000240: 8118 e0be 82fd 113e 8e68 8dbd a30d 05bf
00000250: 6a2d c8be dbea 05be 2970 ec3b 93c2 a2bc
00000260: 7739 d5bb 434f 2fbc 37b3 2bbc ecad 3dbc
00000270: 2551 7e3c bdfe 3f3b f01c 57bc e951 77bc
00000280: 07aa ff3c 17b6 debc db79 94bb eb88 87bc
00000290: 1f69 bb3b 1ba9 d2bb de37 163b b5f8 27bb
000002a0: fdaa f0bb 63d9 d2bc 8cd7 3cbc fb14 313c
000002b0: 75fa ad3c ad98 f3bb d6d7 b2bc d125 6bbd
000002c0: 338c bdbc a4b1 6c3b c811 03bd 4192 b0bb
000002d0: f356 77bd a98f 1abd dcdd d0bc 88df 40bc
000002e0: 309f 71bc 43f3 a9bc 6eac 44bc 8310 f5bc
000002f0: 15df bfbc f297 f73b cb0c 2dbd f41b a6bc
00000300: 9be9 7fbb 1a5b 443a 5d19 03bd 08e0 cabc
00000310: 90c0 bebc 5e41 7dbc e95c 6cbc 4b60 a7bc
00000320: 3872 433c a5dd a63b 5caa d5bb 9e45 c8bc
00000330: 335e 02bd 6e99 1d3d 9970 bcbc a633 33bc
00000340: b588 a4bb fcff 0bbc ca36 613b 635d af3c
00000350: 6482 d83a 8446 eabc 64e2 9fbb 5b66 043b
00000360: 9c67 e83c 8b52 473d 6b57 3dbc 2266 16bb
00000370: d5a6 a4bc 6a0c 00bd 94b8 1ebc b19c 873b
00000380: ee6d 92bb 2a57 d8bc 27af efbb 2aee 943b
00000390: ab71 52bd 7d43 14bc e2ae d4bb 5b85 44bc
000003a0: 61e0 83bc 7ea4 bfbc 773c a9bb 422d e4bc
000003b0: 5f7d febb c084 0dbd 6702 f5bc 1241 1abd
000003c0: c0c0 523b 3e74 efbc 5c6d 7abc 1f68 c1bc
000003d0: d467 f53b 2813 343c 508b 82bc 2ca1 81bc
000003e0: ae62 fbbc 2181 0bbd ed15 57bc 7c85 92bc
000003f0: 1ccd 723c 7271 11bd 0524 103a c92b a1bb
-0.07965108 0.29193413 0.33290434 0.045792982 0.16579178 -0.19668998 0.06892271 -0.023540052
0.54603595 -0.10957212 0.13538112 0.17500624 0.24715802 0.17344524 -0.17480789 0.22567965
0.15256836 0.11767256 -0.01893776 -0.1511934 0.40037838 0.38056508 -0.025784593 -0.034702815
-0.008201865 -0.0024812282 -0.19017689 -0.31788373 -0.28948823 -0.15122664 -0.021905564 0.03846953
-0.12369312 -0.425798 -0.27700877 -0.051379696 0.0790365 -0.23909554 -0.30134466 -0.31057692
-0.31065902 -0.1831808 -0.2938745 -0.29348424 -0.35339266 -0.20365116 -0.48240095 -0.60914147
-0.35831863 0.0571658 -0.48884585 -0.31622028 -0.30640534 -0.23350176 -0.057894498 -0.49698046
-0.19361448 -0.17121126 -0.032022927 -0.16918887 -0.51922125 -0.30773896 -0.22388095 0.0029373164
0.03279943 -0.40210876 -0.56725496 -0.2146867 -0.25206968 -0.2626046 -0.3154263 -0.45007107
-0.35628644 -0.12606367 -0.018721512 0.24998349 -0.17884316 -0.1726666 -0.36060873 -0.15121877
-0.059579644 -0.21597345 -0.113033265 -0.43350887 0.020634752 0.14299105 -0.13406439 -0.11042848
-0.18342137 -0.14704248 -0.017266953 0.03138909 0.0886386 0.07892424 0.083169535 0.050885454
0.13630013 0.3511542 0.31551528 0.14896215 -0.09459158 -0.18638629 -0.1274399 -0.13495424
0.12126127 0.021146787 0.070513465 -0.30298972 -0.1161232 -0.10679923 0.15164167 0.08861452
-0.21358994 -0.0306099 0.16667593 0.41769248 -0.07907613 0.003397006 -0.20351523 0.21827613
0.00643645 -0.06483768 -0.38622212 -0.110192984 -7.840851e-05 0.120050564 -0.19580245 -0.38146648
-0.119972676 0.016495394 0.55334026 -0.09707791 0.00633218 0.36716247 0.4438032 0.2543236
-0.23842211 -0.21266028 0.19277717 0.116447136 0.16312948 -0.31722665 -0.3807674 -0.22249566
-0.43768695 0.14256862 -0.06904708 -0.51973933 -0.39097148 -0.13077872 0.007215519 -0.01986817
-0.0065070945 -0.01070005 -0.01047974 -0.011577111 0.015522276 0.0029296123 -0.013129458 -0.0150952125
0.031209005 -0.027186437 -0.004531128 -0.01654478 0.0057193185 -0.0064288503 0.0022921483 -0.0025630419
-0.007344602 -0.025738424 -0.011526 0.010808225 0.021237591 -0.007433972 -0.021831434 -0.05740911
-0.023138141 0.0036116624 -0.03199938 -0.0053885286 -0.060385656 -0.03773466 -0.025496416 -0.011772044
-0.014747426 -0.020745879 -0.012004001 -0.0299151 -0.023421803 0.007555955 -0.04224853 -0.020277001
-0.0039049152 0.0007490382 -0.03200661 -0.02476503 -0.02328518 -0.015457479 -0.014426448 -0.020431658
0.011929087 0.00509234 -0.0065205526 -0.024447259 -0.031828117 0.0384764 -0.02300291 -0.010937607
-0.0050211796 -0.008544918 0.0034364932 0.021406835 0.0016518352 -0.028598078 -0.004879283 0.002020261
0.028369717 0.048662703 -0.011556487 -0.002294906 -0.020099083 -0.03126184 -0.009687562 0.004138552
-0.004468671 -0.02640875 -0.007314581 0.004544993 -0.051377933 -0.009049294 -0.006490574 -0.011994685
-0.016098203 -0.023393866 -0.0051646787 -0.027853612 -0.0077664102 -0.03455043 -0.029908372 -0.037659712
0.0032158345 -0.029230233 -0.015284862 -0.02360922 0.007489184 0.010990895 -0.01593557 -0.015823923
-0.030686703 -0.034058694 -0.013127786 -0.017885916 0.01481941 -0.03550858 0.00054985314 -0.0049185497

conv2.bias f4 [16]
00000000: 5fb2 303f 20ee 2abc 0aaf d23e 659c 0d3f
00000010: e728 893f 0970 6c3f 5c9c a73e 8cc7 8d3f
00000020: b857 98bd 381e 7dbb fa21 0ebd 906e e43b
00000030: 6a96 7cbd a841 2e3f db45 7abd afdf 1abd
0.6902217 -0.01043275 0.4114917 0.55316764 1.0715607 0.9235845 0.3273648 1.1076522
-0.07438606 -0.0038622748 -0.03470037 0.006971188 -0.061666884 0.68068933 -0.061101776 -0.037810978

conv3.weight f4 [32, 16, 5, 5]
00000000: 91c6 70bd 38bb 69be 8757 50bd db60 d1bd
00000010: b5d8 083d 75df bebd 3937 c3be 4cb4 b5bb
00000020: 9034 16ba e3d7 603d 07e4 0b3e 7617 debd
00000030: 5b80 d0bd 81f7 b3bd 1a44 3fbe 5660 9e3e
00000040: 2594 b4bd 9cf4 91bd 2a0f 973d bbfd 02be
00000050: 70e1 893e 2d8c 3e3c 45c5 a7bd bf95 5cbe
00000060: 43b8 b1bd 67f4 fb3b 6f53 9b3c ef95 af3c
00000070: ee49 b03c 287f 093d c8b7 f43b aa7a 1c3c
00000080: e77e 033d 7a89 ca3c 127c b33c c3eb cd3c
00000090: d5ca b13c 21c5 763c 967c f53b b675 dc3c
000000a0: d7d4 aa3c 8624 ad3b fbf4 d43c ebc3 623c
000000b0: 2d4e e53b 45cf 03bc 66d9 83bc 9211 02bc
000000c0: 1eaf a83c 263e f7b8 f2fb 12be 8624 bfbe
000000d0: 2e28 dabe 2b7c 1ebe dd7a d63d 8f1f 29bd
000000e0: cf8d 143d 5c30 da3d 6bb3 ecbd 8515 c83b
000000f0: f4a0 b9be 61a0 b1bc 12db 03be e80f 32be
00000100: 67a4 8abe 693d e0be bd8c a2be 096d ae3c
00000110: d34d 483d 4588 5f3c 650c 52be f1cc 06bd
00000120: 4fd6 1e3e 9e81 5cbe ea48 483e 2604 15be
00000130: 0d3d 83be 7611 87be 48a5 bbbe 15e8 86bd
00000140: cce2 abbd f231 dc3d 63e9 943e 0a4a 963c
00000150: e380 00bd 7d3b d83d aae7 da3d 9982 0ebe
00000160: 3b20 98be 03c1 f9bd ca6f 913c 6e21 93bc
00000170: 0031 45be a80a 28be 831e 1f3c 87ab 293e
00000180: ee23 0cbc 0d51 c13c 7693 1d3d 6907 4cbd
00000190: aa2e a2be b3d1 543e 3817 e13e 3096 573e
000001a0: 19fe 52be 963d 73be d815 f6bd 1276 023d
000001b0: a45f 013d 8542 69bb 6b29 48be 41e4 30be
000001c0: ff72 85be 48c7 ec3e e79c 1a3a 7880 4c3e
000001d0: fa2b 22be e2cb 4dbe 3f30 3dbc bbbb 5d3b
000001e0: 30fc d53d 8a64 2bbe 93ed 503d a7f6 c13d
000001f0: 0165 d2bd f063 08be 969a aebd d5b8 1c3e
00000200: effe ee3c 0b7c e7bd 429d 42be bb45 c9bc
00000210: a329 ee3d d303 4e3d 4f69 3fbe a4cf 91be
00000220: 3df4 8abe ee35 1e3c 65d7 26be 154d 71be
00000230: 5073 7fbe 7cd4 8fbe c9f8 e4be 4226 94be
00000240: 51d6 80bd d7b6 c9b9 bf49 863e 13f9 4bbd
00000250: ce06 fc3c 0628 f6bd d5e3 adbb ad6d db3b
00000260: cb01 4c3e 05b7 323e d56a d4b9 059a 32be
00000270: df5b 5fbd fc91 c5bc 59e4 0c3d 538d abbd
00000280: 37c2 62be dd11 323e f06b 253e 260b 513c
00000290: e75d df3d 0b59 7ebe ff68 cfbd a687 bb3d
000002a0: 1777 1d3e dde7 333e 749d 9dbc ed87 94be
000002b0: ba15 5bbe 5984 f3bd 4502 47be ebf5 273d
000002c0: 3bae b0be 9881 66be e7d2 95be 3217 bcbe
000002d0: 2d0e 50be f142 0cbf 1fc8 6cbe 4175 8b3e
000002e0: ffd9 833e 4e43 dabe 4a17 44be 65b7 8bbc
000002f0: 42cf b73e e20d a83e 82f6 20be debd 4dbe
00000300: 7df4 81be d2e1 a3be 6ee3 d4bd df8d 693e
00000310: 94fb 403d bbae 1bbe 2e6e b1bd a231 a7bd
00000320: 5068 5ebc 2cbc 9f3b 2aa0 143d 0271 373d
00000330: c5af 08bc ee11 013d b8b2 213c 7272 ae3c
00000340: baba bd3c 4b6f bbbb 7267 4c39 2559 c73b
00000350: 1ffa b63c 974f b93b 121a 433c 3bbd 833c
00000360: 4417 3f3c 1acf 043c 937a bfb9 028e 9fbc
00000370: b752 00bd 595c 4d3c a40d 8bbc 226a 213b
00000380: 5144 693c a973 16be da7d b23d e195 593e
00000390: 4bb7 83bd bdd0 b0bc c905 65bd b52d e93d
000003a0: 6b99 c53d 69c9 4abe 9c1f 08be 4d04 86be
000003b0: 73e5 27be 20e9 d0bc eebc 15be f713 31be
000003c0: 6b59 953d 3500 8c3e 5f69 d3bd c4de bfbe
000003d0: c157 18be 8109 8f3e 672a 923e 5cf8 6d3d
000003e0: 9b04 8c3d 2cb9 33bd 9473 d4bc 3bbc e63c
000003f0: e1a5 ae3c 6c5d 8f3b 80a1 baba 2068 5d3c
-0.058783118 -0.22825325 -0.050864723 -0.10223552 0.033409793 -0.09319965 -0.3812807 -0.0055451747
-0.00057298783 0.054893386 0.13661204 -0.108443186 -0.10180732 -0.08787442 -0.18678322 0.30932873
-0.08817319 -0.07126734 0.07375939 -0.12792103 0.26929808 0.0116301 -0.08191923 -0.21541499
-0.08677723 0.007689047 0.018960683 0.021433799 0.021519627 0.03356853 0.0074681975 0.00955073
0.032103445 0.024723757 0.021909747 0.025136834 0.021703163 0.015061648 0.0074916584 0.026911598
0.020853443 0.005283895 0.025995722 0.013840656 0.0069978447 -0.008045022 -0.016094875 -0.007938759
0.020591315 -0.00011789454 -0.14353922 -0.37332553 -0.4260878 -0.15477054 0.10472653 -0.041289862
0.03626805 0.10653755 -0.11557659 0.006106081 -0.3625561 -0.02168292 -0.12876537 -0.1738888
-0.27078554 -0.43796852 -0.31748 0.021292226 0.048902344 0.013643329 -0.2051254 -0.03291029
0.1551144 -0.2153382 0.19559065 -0.14552364 -0.25632516 -0.2638051 -0.36649537 -0.06587235
-0.083928674 0.10751714 0.2908431 0.018345851 -0.031372916 0.105582215 0.10688718 -0.13917007
-0.2971209 -0.12195017 0.0177535 -0.017960276 -0.19256973 -0.16410315 0.009711864 0.16569339
-0.008553488 0.023598218 0.038470708 -0.049811754 -0.31676227 0.20783119 0.43963027 0.21053386
-0.20604743 -0.23753962 -0.12015885 0.031850882 0.03158535 -0.0035592627 -0.1954705 -0.17274572
-0.26064298 0.4624579 0.0005898014 0.19970882 -0.15837088 -0.20097306 -0.011547147 0.003383382
0.104484916 -0.16737571 0.05100782 0.09470873 -0.10273171 -0.13319373 -0.08525579 0.15304883
0.029174296 -0.11302956 -0.19005302 -0.024569383 0.11629035 0.050296616 -0.18692516 -0.2847873
-0.27139464 0.0096564125 -0.16293104 -0.2356456 -0.24946332 -0.280918 -0.44721058 -0.28935438
-0.062908776 -0.00038473934 0.2622814 -0.049798083 0.030764963 -0.120193526 -0.0053067007 0.006696424
0.19922559 0.17452629 -0.00040515387 -0.17441566 -0.054530974 -0.024117462 0.034397457 -0.08376565
-0.221444 0.17389627 0.16154456 0.012759006 0.10906582 -0.24838655 -0.10127448 0.09156732
0.1537746 0.17568918 -0.019240119 -0.29009953 -0.21395007 -0.11890478 -0.1943446 0.04100601
-0.34507927 -0.22510374 -0.29262468 -0.36736447 -0.20317908 -0.54789644 -0.23123215 0.27237895
0.25752255 -0.42629474 -0.19149509 -0.017055223 0.35900313 0.32823092 -0.15719035 -0.2009196
-0.25381842 -0.32008225 -0.10394941 0.22808026 0.047114924 -0.15203373 -0.08663593 -0.081637636
-0.013574675 0.0048747268 0.036285557 0.044785507 -0.008342688 0.03151124 0.00986927 0.021294806
0.023160327 -0.0057200543 0.00019493492 0.006083625 0.022336064 0.00565524 0.011908071 0.016081443
0.011663262 0.0081060175 -0.00036521684 -0.019476894 -0.031328883 0.012534224 -0.016974278 0.002462991
0.014237479 -0.14692558 0.087154105 0.2124858 -0.06431445 -0.02158391 -0.05591372 0.11385671
0.09648403 -0.19803394 -0.13293308 -0.26175156 -0.16396122 -0.025501788 -0.14622852 -0.17292772
0.07292446 0.27343908 -0.10322832 -0.37474644 -0.14877225 0.27936938 0.28547975 0.058098182
0.06836816 -0.043877766 -0.025934018 0.028165927 0.021319332 0.0043751504 -0.0014238805 0.013513595

conv3.bias f4 [32]
00000000: 907d 55bf 9367 403e c145 68bf 1604 8cbd
00000010: 9100 e53b 6e57 32bf 7a6d 5abf 8eb0 1bbf
00000020: bcdb cbbe 659e 1dbf d16c b7be fe12 b4bd
00000030: b7ef 7abf 63fc 23bf 85b3 2fbe ed30 8abf
00000040: 1563 58bf b56e e8be ded1 c0be 5d5f 47bf
00000050: 434c 24bf 5f66 68bf 4a52 fcbe a5e2 02bd
00000060: 631c 8fbf 00d4 81be fc70 43bf d4de a3be
00000070: 8c39 b0bf 0cbb cdbe 9443 14bf e9f0 41bf
-0.8339472 0.1878951 -0.90731436 -0.06836717 0.006988593 -0.6966466 -0.853233 -0.60816276
-0.39816082 -0.61569816 -0.35825208 -0.08792685 -0.98022026 -0.64056987 -0.17158325 -1.0796181
-0.8452619 -0.45396963 -0.37660116 -0.7787989 -0.64178866 -0.90781206 -0.49281532 -0.031954426
-1.1180538 -0.25357056 -0.76344275 -0.32005942 -1.3767562 -0.40181768 -0.57915616 -0.75758225

fc.weight f4 [10, 32]
00000000: ec2e f8bd 5c2b 48bc 70b8 1f3f bf26 2ebd
00000010: 3dc7 e93d eff2 ab3e aad5 c5bd 61f0 17be
00000020: c2b5 febd d462 413e a5a1 563d 1623 22bc
00000030: 94a9 45be dd2c 10bf 97d5 4c3e 3c9f d03d
00000040: d4d4 09be 698c 093f b61f e0be 1673 b9be
00000050: 2447 4abe 98e4 483e a7f3 87be dab9 c53d
00000060: cc23 81be 5629 783e 77db d9bd 267d 20bf
00000070: 59be b9bd 4bc0 d7be 7360 e23c c78b d4bd
00000080: 9cff 263c 7e1c 1c3f 275f 69bb 5658 843d
00000090: 4022 5cbe 1dbf acbe 7e6e a4bd 76d2 9fbe
000000a0: 858b 8abd 267e 72be 5b70 c5be 28be 903d
000000b0: e0b2 a1be 28fa 84bc 3970 e73c 5b49 92be
000000c0: ae87 11be a4b2 1fbd 715e 003f 8930 dd3c
000000d0: f6ea cbbe 2553 cabe 7400 83bc adbb 373f
000000e0: 3a28 dabd ad37 75be e4b1 663e 59d4 633e
000000f0: d128 94bd 02cd 5ebd c1a3 673e 4611 6ebe
00000100: b003 02bd 44e2 07be 23e1 cdbd b745 263d
00000110: c345 d6be 8fe6 ce3d ed7c 183f 86fa a539
00000120: 2d9d 8dbe ca5b 3e3e 4879 563d 2bf6 eb3c
00000130: db22 3d3e 403c d0be bb3f 8a3e ff2f 9bbe
00000140: 8ff6 b73d 481c 5e3e 2e42 123e 31df 543e
00000150: dc32 ba3d 773b 65bd 7383 a53d 138c 94be
00000160: 8592 e63d f3d0 bbbd 7a49 043c 4ae4 5cbd
00000170: e7b2 763d f5c2 a33e a625 163f 2401 f4be
00000180: 4707 233f f9a3 14be ebb2 a3be 2d59 553d
00000190: 80f3 83be 1d72 663e c969 d33c e252 5ebd
000001a0: ed6d e33e db33 323e 3b94 6bbd 6bc5 683d
000001b0: 4b96 94be b4c6 11be 1230 0ebd ba65 e13e
000001c0: 9772 22be 7ae0 f3bc 6c66 2e3b 1284 afbe
000001d0: ecb6 8f3e eef0 f5bd 6aeb c5bc 331c 4bbe
000001e0: 5ed2 0bbd c335 fabe fd56 6cbd a48b 373e
000001f0: 62f2 833d 3a3d 053f 17ea 8abe aac6 a33d
00000200: 1014 30be 679e 21be 6c2f 013a af19 ce3d
00000210: b111 d0bd 5dca b6bd c54b 8ebd 8a3b 433d
00000220: bf0a fabc 728e b4be f478 cc3c 1175 103d
00000230: 32c0 983e d7ed 1e3f f016 82be 3ceb dfbe
00000240: d5c7 ff3e 2f61 7bbe fc86 3fbe b8fd b7bc
00000250: 7894 aabe 55bb 893c a87d 31bd 27e8 0e3c
00000260: 10fa 063e ba8c 993e cf1b 91be 291a cb3e
00000270: d29b c0bd a49b 7cbe 5d69 513d 7b34 083f
00000280: 9cdc 863e 2539 81be 54d2 58be d70d 1e3c
00000290: 517f 1d3f ae3f 943e 4c7d 3bbc 591d 093e
000002a0: 5183 a23e 8d58 bdbe 52ee e83e be44 b63a
000002b0: 5e99 10be 5ddc 9bbe 6c80 1b3e 511f b93e
000002c0: 4c88 e3bd a915 683c aa9a 8bbe 6a64 893e
000002d0: 0ebc 8c3e a729 1ebe cc62 35bd ac15 00be
000002e0: 8728 bf3c 1053 5dbe 3d94 143d 6b6e 983e
000002f0: 7105 2ebe 9a20 1dbe c95c 3fbe 6b57 bd3e
00000300: f575 e9be a0ca fc3d 8300 43be 94c4 17bc
00000310: ecf6 a73d 7fa2 833e a0e1 413d 7b43 183e
00000320: 5b0b 90be 5555 45be b9a5 31be de88 3f3d
00000330: 134f f3bd b512 18bd 4fe3 26be 60c1 4b3e
00000340: 2f96 343d 6e1c eb3e 8849 533d 7648 183f
00000350: 2bcb 5f3e fbf8 003f a7fe 35be 5dcb 92bc
00000360: c3ba 43be b675 a23e 81aa d73c f7f3 efbe
00000370: f9ad 05be 7ec9 88be f0d0 16bd 5ce7 223e
00000380: b6ca 49be f2a6 803e 24fe 4c3e 2913 c4bd
00000390: 8348 1c3e ddba 0fbf 30f6 e93b e308 e8bc
000003a0: 05f4 143d 2917 c63d 5257 0cbc fa37 3fbe
000003b0: 1bce c5bd f87b 043f 246b aa3e 874a 81be
000003c0: 57b9 18bc 8f9c 00bf 6aaa 5b3d b4ce 47be
000003d0: 7f17 8dbe 7d83 a4be 0c0c 1d3f 9c03 35be
000003e0: eaa5 3cbe c288 f43e 1d65 b8bd 0155 b03d
000003f0: f06b fdbd da1b f03e 0c99 44be 930f d6be
-0.12118325 -0.012217369 0.62390804 -0.04251742 0.11414955 0.3358378 -0.09659894 -0.14837791
-0.12437011 0.18885356 0.05240025 -0.00989606 -0.1930297 -0.56318456 0.20003353 0.101866215
-0.13460094 0.53729874 -0.43774194 -0.36220616 -0.197537 0.19618452 -0.2655308 0.09654589
-0.25222623 0.24234518 -0.10637563 -0.6269096 -0.09069509 -0.42138895 0.027633881 -0.10378223
0.010192778 0.60980976 -0.0035609694 0.06462161 -0.2149744 -0.33739558 -0.08028887 -0.31215256
-0.067648925 -0.23680934 -0.38562283 0.070675194 -0.31581783 -0.016232565 0.028251754 -0.2857159
-0.14211914 -0.038988724 0.50144106 0.027000682 -0.39827698 -0.3951656 -0.015991427 0.71770746
-0.10652204 -0.2394702 0.22528797 0.22248973 -0.072343476 -0.05439473 0.22621061 -0.23248777
-0.031741798 -0.13269907 -0.10052707 0.04059383 -0.418501 0.10102569 0.5956562 0.00031657907
-0.27658978 0.18589702 0.052361757 0.028803905 0.18470328 -0.40670967 0.27001747 -0.30310056
0.08982574 0.21690476 0.14283058 0.20788266 0.09091732 -0.055964913 0.080817126 -0.29013118
0.11258415 -0.09170713 0.008074159 -0.05392865 0.06022921 0.31984678 0.58651197 -0.4765712
0.6368298 -0.14515676 -0.3197244 0.052086998 -0.25771713 0.22504468 0.025807278 -0.054278262
0.44419804 0.17402594 -0.05751441 0.056828897 -0.29020914 -0.14235955 -0.034713812 0.44022924
-0.15864025 -0.029770125 0.002661134 -0.3428045 0.28069246 -0.12008844 -0.024160106 -0.19834976
-0.03413617 -0.48869142 -0.057700146 0.17924362 0.06442715 0.5204655 -0.2713172 0.079968765
-0.17195153 -0.15783082 0.0004928026 0.100634925 -0.10159624 -0.089253165 -0.06948046 0.047664203
-0.030522702 -0.35264927 0.024960019 0.035267893 0.29834133 0.62081665 -0.25408125 -0.43734157
0.49957147 -0.24548791 -0.18703836 -0.02245985 -0.33316398 0.01681296 -0.043332726 0.008722342
0.13181329 0.29990178 -0.2834153 0.39668396 -0.0940472 -0.24668747 0.051125873 0.5320508
0.26340187 -0.2523891 -0.21173984 0.009646854 0.61522394 0.28954834 -0.011443447 0.13390101
0.3174081 -0.3698162 0.45494324 0.0013905985 -0.14121005 -0.3044156 0.15185708 0.36156705
-0.11109981 0.01416532 -0.27266437 0.26834422 0.27487224 -0.15445577 -0.044283673 -0.12508267
0.023334755 -0.21613717 0.036274184 0.29771742 -0.16994263 -0.15344468 -0.18687738 0.36980757
-0.45597807 0.12343335 -0.19043164 -0.0092631765 0.082013935 0.25709912 0.047334313 0.14869492
-0.28133664 -0.19270833 -0.17348374 0.046761386 -0.118803166 -0.037127215 -0.16297649 0.19897985
0.04408854 0.45920128 0.051583797 0.59485567 0.21854846 0.50379914 -0.17772923 -0.017919237
-0.19114213 0.3173043 0.02632642 -0.46865818 -0.13054647 -0.26716226 -0.036820352 0.15908569
-0.19706234 0.2512737 0.20018822 -0.09573967 0.15262036 -0.56144506 0.0071399435 -0.02832455
0.036365528 0.09672386 -0.008565741 -0.18673697 -0.09658452 0.5175166 0.33284867 -0.25252172
-0.009321532 -0.5023889 0.053629316 -0.19512445 -0.2755699 -0.32131568 0.6134651 -0.17677158
-0.18422666 0.47760588 -0.09003661 0.08609963 -0.12374103 0.4689625 -0.19199008 -0.41808757

fc.bias f4 [10]
00000000: 82eb 643e 1582 0440 411f f8be 1982 d0be
00000010: 17da 6f3e 968c 17bf 1d28 93bf 911b 043f
00000020: be24 bd3d d8e4 00bf
0.22355464 2.0704396 -0.48461345 -0.40724257 0.23423038 -0.5919889 -1.1496617 0.51604563
0.09235524 -0.5034919
